5/task3/results/q1_model.pt (torch, 395369 bytes, 28 tensors)

conv1.weight f4 [16, 3, 7, 7]
0	0xbd4221d9	-0.04739556
1	0xbd097a25	-0.03356375
2	0xbdf04d7f	-0.11733531
3	0xbda7b5c6	-0.081889674
4	0xbe456ea7	-0.19280492
5	0x3d88fe0f	0.06689083
6	0x3d0792c1	0.03309894
7	0xbd6338a3	-0.055473935
8	0xbe416967	-0.18887864
9	0xbdc5c004	-0.09655765
10	0xbdad95f3	-0.08475866
11	0xbd3c991d	-0.046044458
12	0xbc9d8c0e	-0.019231822
13	0x3cf253fb	0.02958106
14	0xbcc08c02	-0.02350426
15	0xbe8cfa29	-0.27534607
16	0xbe63c309	-0.22242369
17	0x3d27b133	0.040940475
18	0xbdd3c8f5	-0.10341064
19	0x3d9993a2	0.07498862
20	0x3e138767	0.1440712
21	0xbce8cee2	-0.028418962
22	0xbd24613f	-0.040131804
23	0x3ea2161f	0.31657502
24	0x3e886589	0.26639965
25	0xbc9b0dcc	-0.018927477
26	0xbd47a3e1	-0.04874027
27	0x3d05d81f	0.032676812
28	0xbcc33bd2	-0.023832235
29	0xbe0226e7	-0.12710153
30	0x3e68206a	0.22668615
31	0x3e6baf52	0.23016098
32	0xbd13d6ed	-0.03609364
33	0xbc120418	-0.008912109
34	0xbd346872	-0.04404492
35	0x3d646635	0.055761535
36	0xbda1ae63	-0.0789459
37	0xbd8a12dd	-0.06741879
38	0xbdb5e56b	-0.08881649
39	0xbc9b261f	-0.018939076
40	0x3d22e0c1	0.039765123
41	0xbd3531b2	-0.044236846
42	0x3ded367c	0.11582658
43	0x3e2fd580	0.17171288
44	0x3cd66c5c	0.026174717
45	0xbbd772ea	-0.006574978
46	0x3d515993	0.051110815
47	0x3dd4fb25	0.103994645
48	0x3dd65bd5	0.10466734
49	0xbd75d52b	-0.060017746
50	0xbd444b02	-0.047923096
51	0xbd4d929a	-0.05018864
52	0xbd7be971	-0.061501924
53	0xbdebd6f9	-0.11515612
54	0xbd76743d	-0.060169447
55	0xbd468cf0	-0.048474252
56	0xbe1fd237	-0.15607534
57	0xbdd41a32	-0.10356559
58	0xbd82004c	-0.06347713
59	0xbd4eceac	-0.050490066
60	0xbda1ffb5	-0.079101
61	0x3b31be57	0.0027121508
62	0xbe001d93	-0.12511282
63	0xbe1ed358	-0.15510309
64	0xbea4064b	-0.3203605
65	0xbdd37281	-0.10324574
66	0x3cdcde77	0.026961548
67	0xbe10bcda	-0.14134541
68	0xbe21510d	-0.15753575
69	0xbd0f9e8c	-0.03506331
70	0xbd872e6f	-0.066006534
71	0xbd0193a7	-0.031634953
72	0x3e86a7d8	0.2629993
73	0x3e984602	0.29740912
74	0xbd828d49	-0.06374604
75	0xbe1b9fb2	-0.15197638
76	0xbe20a278	-0.15686977
77	0xbe7f5937	-0.24936377
78	0xbdcd086e	-0.100113735
79	0x3e85518e	0.26038784
80	0x3e8ca794	0.27471602
81	0xbde5f4f4	-0.11228362
82	0xbe121362	-0.14265206
83	0xbe830361	-0.25588515
84	0xbd4b897a	-0.049691655
85	0xbdab5d14	-0.083673626
86	0xbda16ff4	-0.078826815
87	0x3d52690d	0.051369715
88	0xba424525	-0.0007410816
89	0x3cae8fdd	0.021308834
90	0xbe0c8070	-0.1372087
91	0x3dfbe7a0	0.12300038
92	0x3dcffb4c	0.10155353
93	0x3dd14663	0.10218503
94	0xbc11344c	-0.008862566
95	0x3da6bc19	0.081413455
96	0x3e1279ce	0.14304277
97	0x3d7af7dd	0.061271537
98	0xbc3c1253	-0.011478978
99	0xbd32d68c	-0.04366164
100	0x3d8503bf	0.06494855
101	0xbd82ca57	-0.063862495
102	0xbddd1e69	-0.10796816
103	0xbe1bb22a	-0.15204683
104	0xbdf082b1	-0.117436774
105	0xbdbeca0d	-0.09315882
106	0xbda9ac0c	-0.082847685
107	0x3de8b63d	0.11362884
108	0x3e21671b	0.15761988
109	0xbce815b7	-0.028330667
110	0xbd2ee2a7	-0.04269662
111	0xbe4ffae0	-0.20310545
112	0x3bbbffbc	0.005737273
113	0xbe2ae1ec	-0.16687745
114	0x3d3d28ca	0.046181478
115	0x3e5be85b	0.21475355
116	0xbd9ca722	-0.076490656
117	0xbd8823b3	-0.06647434
118	0xbde30e5b	-0.110867225
119	0x3d905ae5	0.07048587
120	0x3db03d88	0.08605486
121	0x3f12b491	0.5730677
122	0x3f296626	0.6617149
123	0x3d2a57bd	0.04158758
124	0xbc82ba90	-0.0159581
125	0xbe69d7cc	-0.22836226
126	0xbcb8d5b6	-0.022562843
127	0x3de55ace	0.1119896
128	0x3eebc895	0.4605147
129	0x3f06669b	0.52500314
130	0x3c613d73	0.013747561
131	0xbd8b7d47	-0.06811004
132	0xbe75fd81	-0.24022485
133	0xbd427d22	-0.047482617
134	0xb9b56988	-0.00034601637
135	0x3d4d3822	0.05010236
136	0x3e2c4ef1	0.16826989
137	0x3d67ed38	0.056622714
138	0x3bb81719	0.005617988
139	0xbe18d077	-0.14923273
140	0xbc7b1fa4	-0.015327368
141	0x38ae0ca6	8.2993225e-05
142	0x3d740cbb	0.059582453
143	0x3ddb2403	0.10700228
144	0x3d805d51	0.06267799
145	0xbd1d1cd9	-0.03835759
146	0xbe076eeb	-0.13225906
147	0xbd783d1b	-0.06060515
148	0x3c31d8cc	0.010854911
149	0x3da54ff8	0.080718935
150	0x3c8c4595	0.017123023
151	0xbd11e129	-0.03561512
152	0xbdeb7077	-0.1149606
153	0xbc98447f	-0.018587349
154	0x3ca8552b	0.020548424
155	0x3e518761	0.20461799
156	0x3d900466	0.07032089
157	0x3d626983	0.055276405
158	0xbd3d4d8a	-0.046216525
159	0xbd94f892	-0.072739735
160	0xbd3370c7	-0.043808725
161	0x3e5fc595	0.21852715
162	0x3e778801	0.24172975
163	0x3e55d1c2	0.20880798
164	0x3e52b481	0.2057667
165	0x3e96444b	0.29348978
166	0x3d399286	0.04530575
167	0x3e1f0aa0	0.15531397
168	0x3e744414	0.23854095
169	0x3ec4617f	0.38355634
170	0x3d9c3de0	0.07628989
171	0xbd45a497	-0.04825267
172	0x3e242f5c	0.16033691
173	0x3d5e8104	0.054322258
174	0x3dbab33b	0.09116217
175	0x3d3a516a	0.0454878
176	0x3dfc9cf3	0.12334623
177	0xbd6b1719	-0.057395075
178	0xbd8c7ea1	-0.0686009
179	0x3dab8e9e	0.083768114
180	0x3d50bd54	0.050961807
181	0x3e11b529	0.14229263
182	0x3c17b7ea	0.009260157
183	0xbd77ca03	-0.060495388
184	0xbe284382	-0.16432002
185	0xbde76c2d	-0.1129993
186	0x3cea6d46	0.028616559
187	0x3d824531	0.063608535
188	0x3ca7da76	0.020489912
189	0xbdb48337	-0.0881409
190	0xbd93e67a	-0.07221694
191	0xbdeab563	-0.11460378
192	0x3b4f2c9a	0.0031612278
193	0x3cce6b7d	0.025197739
194	0xbe61f213	-0.22065
195	0xbe84b291	-0.25917485
196	0xbafeca07	-0.0019438871
197	0xbc53ceea	-0.01292775
198	0x3e003241	0.1251917
199	0xbc43d382	-0.011952283
200	0xbda20456	-0.07910983
201	0xbdb295ac	-0.08719954
202	0x3c60f8fa	0.013731236
203	0xbe16f69f	-0.14742516
204	0xbe1cd405	-0.15315254
205	0xbe55993d	-0.20859237
206	0xbe8de8d5	-0.277167
207	0xbe34f2e1	-0.17670776
208	0xbe3b3012	-0.18280056
209	0x3ae1cecb	0.0017227767
210	0xbdf8d1d8	-0.121493995
211	0xbdd78f45	-0.10525373
212	0xbeb75096	-0.3580367
213	0xbed9faae	-0.42574066
214	0xbda7c816	-0.0819246
215	0xbe03986e	-0.12851116
216	0x3da951c8	0.08267552
217	0xbd7fe26d	-0.062471796
218	0xbc879f51	-0.01655546
219	0xbed0b85e	-0.4076566
220	0xbf095a4e	-0.5365342
221	0xbe5371e7	-0.20648919
222	0xbd5ecde1	-0.05439556
223	0x3dedcdf8	0.11611551
224	0x3dd0a48d	0.101876356
225	0xbc6bfb6c	-0.014403205
226	0xbea03438	-0.3128984
227	0xbee1e60f	-0.44120833
228	0x3c014f6f	0.007892474
229	0x3dca36ad	0.0987371
230	0x3e7c9594	0.24666435
231	0x3d530afb	0.051524144
232	0xbc6bbec7	-0.014388747
233	0xbdc1f15c	-0.09469864
234	0xbd9839f5	-0.074329294
235	0x3ded1abe	0.11577366
236	0x3e632a89	0.22184195
237	0x3e2987fd	0.16555782
238	0x3d8cfcfb	0.0688419
239	0x3e279b45	0.16367824
240	0x3de7faa6	0.11327104
241	0x3da42973	0.08015718
242	0x3d80d1de	0.06290029
243	0x3cfec81e	0.031101283
244	0x3d03b1af	0.032151874
245	0x3d20f3b3	0.03929491
246	0x3d15ca0d	0.036569644
247	0x3e1a3702	0.15060046
248	0x3e514083	0.20434766
249	0x3e0bd186	0.13654146
250	0x3d9b77e6	0.07591228
251	0x3ce501e0	0.027954996
252	0xbd3cb2c1	-0.04606891
253	0xbd8a1990	-0.06743157
254	0xbcc6249c	-0.024187379
255	0xbd3e79b2	-0.046502776

conv1.bias f4 [16]
0	0x37fd9c99	3.0232872e-05
1	0x383257e2	4.2520354e-05
2	0x36613a81	3.3561666e-06
3	0xb88d899e	-6.749037e-05
4	0xb879be30	-5.9543352e-05
5	0x37edeee5	2.8363846e-05
6	0xb64fb1c6	-3.0948881e-06
7	0xb680cbb8	-3.8384132e-06
8	0xb81a745c	-3.682483e-05
9	0x3877935d	5.902663e-05
10	0x37ee1f54	2.83864e-05
11	0xb71c5ce9	-9.319957e-06
12	0x3818001d	3.623973e-05
13	0xb6f5b960	-7.3231495e-06
14	0x34976615	2.8200216e-07
15	0x34083c52	1.2687931e-07

bn1.weight f4 [16]
0	0x3f70ac1e	0.9401263
1	0x3f6037ea	0.8758532
2	0x3f4a4ef8	0.79026747
3	0x3f96022f	1.1719416
4	0x3fa3c078	1.2793112
5	0x3f853d5b	1.0409349
6	0x3f363b65	0.7118438
7	0x3f4f062f	0.8086881
8	0x3f84d5e7	1.0377778
9	0x3f5f8a15	0.8732007
10	0x3f271076	0.6525949
11	0x3f6e2e74	0.9303963
12	0x3f824d18	1.0179777
13	0x3f5276c1	0.82212454
14	0x3f4d7a09	0.80264336
15	0x3f58885c	0.8458307

bn1.bias f4 [16]
0	0xbd382a7b	-0.044962388
1	0x3e45615a	0.19275418
2	0xbe44f252	-0.19233063
3	0x3f480fe1	0.7814923
4	0x3f6d1838	0.9261508
5	0xbe5a3ae2	-0.21311525
6	0xbc51aeb0	-0.012797996
7	0xbe138588	-0.14406407
8	0x3ddff528	0.10935432
9	0x3e753c83	0.23948865
10	0xbcf7cd45	-0.030249247
11	0xbeac8ad2	-0.33699661
12	0xbcef19a9	-0.02918704
13	0x3e1f031f	0.15528534
14	0xbee50c15	-0.4473578
15	0x3d959066	0.073029324

bn1.running_mean f4 [16]
0	0xbde61f9a	-0.11236496
1	0x3da2d3f7	0.07950585
2	0xbeab7eda	-0.33495218
3	0xbd6835fc	-0.05669211
4	0xbcf72c0a	-0.030172367
5	0x3dee06b0	0.11622369
6	0xbe869990	-0.26289034
7	0xbdffd5fd	-0.12491987
8	0x3d9dabfb	0.07698818
9	0xbdb1b3ee	-0.08676897
10	0xbd33dd85	-0.04391243
11	0x3ec078f2	0.37592274
12	0x3dc7bb4c	0.09752521
13	0xbe426bb8	-0.18986404
14	0x3e6ef1a0	0.2333436
15	0x3d9eb8e9	0.077501126

bn1.running_var f4 [16]
0	0x3ff21b4a	1.8914578
1	0x3fa0a6cd	1.2550904
2	0x4025c874	2.5903597
3	0x3f1792d7	0.59208435
4	0x3f129707	0.572617
5	0x3f527db6	0.8222307
6	0x3fb93689	1.4469768
7	0x3ffb84b0	1.9649868
8	0x3f2f0778	0.6837077
9	0x3efd19f0	0.4943385
10	0x3fafe4a5	1.3741652
11	0x400954ab	2.1457927
12	0x4045931d	3.087104
13	0x40997810	4.795906
14	0x3f7fe4d1	0.9995852
15	0x3f8473f6	1.0347888

conv2.weight f4 [32, 16, 3, 3]
0	0x3dad63d9	0.0846631
1	0xbde02214	-0.10944
2	0xbe428dbd	-0.18999381
3	0xbe0d0abd	-0.13773628
4	0xbe06e77d	-0.13174243
5	0xbe8cfcac	-0.27536523
6	0xbe127652	-0.14302948
7	0xbe62d31b	-0.22150843
8	0xbe6c6094	-0.23083717
9	0xbd92255f	-0.07136034
10	0xbc145983	-0.009054544
11	0x3ddafada	0.106923774
12	0xbd4851b1	-0.048906032
13	0xbd81d22b	-0.063389145
14	0x3e4a52f7	0.19758211
15	0xbdc6eb01	-0.09712792
16	0xbd962b2c	-0.07332453
17	0x3d79ea17	0.06101426
18	0x3c82e5c1	0.015978696
19	0xbb41cf80	-0.0029573143
20	0x3d714b46	0.058909677
21	0xbd8caeb2	-0.06869258
22	0xbdd1e926	-0.10249548
23	0xbd72d54e	-0.059285454
24	0xbe86048b	-0.2617534
25	0xbe85b009	-0.26110867
26	0xbe7ba2f0	-0.24573874
27	0xbd78e612	-0.060766287
28	0x3d84cf83	0.06484892
29	0x3da16973	0.07881441
30	0x3de1adf3	0.11019506
31	0x3e7aba8b	0.24485223
32	0x3db6be01	0.08922959
33	0x3da5666c	0.08076176
34	0xbc145466	-0.009053325
35	0xbe04d785	-0.12972839
36	0x3d18ec3c	0.037334666
37	0xbe8f426d	-0.27980366
38	0xbe2491f7	-0.16071306
39	0x3eab0580	0.33402634
40	0x3e7a8004	0.24462897
41	0x3e25e978	0.16202343
42	0x3e001506	0.1250802
43	0x3e0e38c8	0.13888848
44	0x3e8aac60	0.27084637
45	0x3c382756	0.011239847
46	0x3dadf758	0.08494443
47	0x3d5ed249	0.054399762
48	0x3d9682d8	0.07349175
49	0xbafe09e4	-0.001938161
50	0xbd8229b5	-0.06355611
51	0x3d3919dc	0.045190677
52	0x3e0483b0	0.1294086
53	0x3d067972	0.032830663
54	0x3d943003	0.0723572
55	0x3da1c93d	0.07899711
56	0x3dc2259c	0.0947983
57	0xbbed9d01	-0.0072513823
58	0x3bcd9560	0.0062739104
59	0x3e26b8e1	0.16281463
60	0x3d4a8dc9	0.049451623
61	0x3d3649c9	0.04450396
62	0x3d89b97f	0.06724834
63	0xbea46fd9	-0.32116583
64	0xbea0c73c	-0.31402004
65	0xbe39c20a	-0.18140426
66	0xbdc993df	-0.09842657
67	0xbdf8df49	-0.12151963
68	0xbdab79f2	-0.083728686
69	0x3df6c761	0.12049747
70	0x3d8d110e	0.068880185
71	0x3e523267	0.2052704
72	0x3b4abe9d	0.0030936368
73	0xbe3af24b	-0.1825649
74	0xbe588694	-0.21145087
75	0x3d95d14b	0.0731531
76	0xbd06fffc	-0.03295897
77	0xbddeae91	-0.1087314
78	0x3e2feda4	0.17180496
79	0x3ddbae16	0.10726564
80	0x3d4004c1	0.046879534
81	0xbd8039b7	-0.06261008
82	0xba29eb25	-0.00064818776
83	0xbc23de18	-0.010001682
84	0xbe71c7a3	-0.23611312
85	0xbe086bd3	-0.13322382
86	0xbdcb2866	-0.09919815
87	0xbe4d74f4	-0.20064145
88	0xbe67d4c9	-0.22639765
89	0xbe2e7807	-0.17037974
90	0xbe97cc1e	-0.29647917
91	0xbe87b275	-0.2650334
92	0xbea79dbe	-0.32737535
93	0xbe3ad434	-0.18245012
94	0xbe07ae97	-0.13250194
95	0xbc0009b3	-0.0078148125
96	0x3db6c9cb	0.08925208
97	0x3e3629d0	0.17789388
98	0x3e677102	0.22601703
99	0xbe688059	-0.22705211
100	0xbe7ae2be	-0.24500558
101	0xbe834e42	-0.25645643
102	0xbbfb2d94	-0.0076653454
103	0xbc41fac5	-0.011839573
104	0xbbc5ec0f	-0.0060401033
105	0x3ca9cc92	0.02072743
106	0x3d7c5eab	0.06161372
107	0xbaee6123	-0.0018186908
108	0xbe01fdf2	-0.12694529
109	0x3db8cc68	0.090233624
110	0xbd09f25b	-0.033678394
111	0xbda85572	-0.082194224
112	0xbd19672e	-0.037451915
113	0xbe244512	-0.16041973
114	0xbd90dd6a	-0.070734814
115	0xbd015102	-0.031571396
116	0xbe8881b6	-0.26661462
117	0x3d284da3	0.041089665
118	0xbd270833	-0.040779304
119	0xbdc8c6c3	-0.09803536
120	0xbe0b6eaf	-0.13616441
121	0xbe076b07	-0.13224421
122	0xbd826dec	-0.06368622
123	0xbe960b3c	-0.29305446
124	0xbe9b6e8a	-0.30357772
125	0xbe3ae969	-0.18253101
126	0x3c251fe0	0.0100784
127	0xbdd3824b	-0.10327586
128	0xbca86bee	-0.020559277
129	0xbc8a8b3c	-0.016912095
130	0x3d87acb5	0.06624738
131	0x3da1a81d	0.07893393
132	0x3df39718	0.11894053
133	0x3de08d04	0.109643966
134	0x3d457ecf	0.048216637
135	0xbe5671be	-0.20941827
136	0xbde48174	-0.11157504
137	0xbd8b9777	-0.06815999
138	0x3d89a999	0.06721801
139	0x3d37ae53	0.044843983
140	0xbc77d68f	-0.015126838
141	0x3e5f6481	0.21815683
142	0x3e7309da	0.23734227
143	0x3e08111e	0.1328778
144	0x3e9c5d9a	0.30540162
145	0x3dc8eaf3	0.09810438
146	0xbe97b765	-0.29632106
147	0x3e770f9d	0.2412705
148	0xbdd14413	-0.10218062
149	0xbef30ffb	-0.4747313
150	0xbdbcfb6a	-0.09227641
151	0xbe8b40a4	-0.27197754
152	0xbef79d71	-0.48362306
153	0xbdbd6a9d	-0.092488505
154	0xbd80ed61	-0.062952764
155	0x3e51bc3a	0.20481959
156	0xbdd091e1	-0.10184074
157	0x3cdf6f17	0.027274651
158	0x3e5b917f	0.21442221
159	0xbe5b37bf	-0.21407984
160	0xbe13f4c0	-0.14448833
161	0x3e3d1c74	0.18467885
162	0x3e0894e3	0.13338046
163	0xbe8f6164	-0.2800399
164	0x3e0d22ce	0.13782808
165	0xbd013836	-0.031547748
166	0xbe965758	-0.29363513
167	0x3d49cd2a	0.049267925
168	0xbd1b0b49	-0.03785256
169	0xbe315843	-0.17318825
170	0xbd169329	-0.036761437
171	0xbe9efc62	-0.31051928
172	0xbe456053	-0.19275026
173	0x3e26791c	0.16257137
174	0xbee480ad	-0.44629422
175	0xbe57c1a1	-0.21069957
176	0x3e4ba224	0.1988607
177	0xbed2b646	-0.4115469
178	0xbe002daa	-0.1251742
179	0x3e59e851	0.21280028
180	0x3d8767d0	0.066115975
181	0xbed56b54	-0.41683447
182	0x3d42853e	0.04749035
183	0x3e4e6c58	0.20158517
184	0xbeb739f5	-0.35786405
185	0x3e121d22	0.14268926
186	0x3d43c4c3	0.04779507
187	0xbe995fea	-0.2995599
188	0x3d37af31	0.04484481
189	0x3de4f257	0.11179035
190	0x3cb4ab08	0.02205421
191	0xbc3298dc	-0.010900702
192	0x3d9db438	0.077003896
193	0xbe3c1a8c	-0.18369502
194	0xbe4bc039	-0.19897546
195	0x3d2b80fc	0.041871056
196	0xbdb934e3	-0.090432905
197	0xbdfceee5	-0.12350253
198	0xbe22cb19	-0.15897788
199	0xbe80bd90	-0.25144625
200	0xbe137034	-0.14398271
201	0xbcdb4f3a	-0.026771177
202	0xbd38b0ac	-0.045090362
203	0xbdf4f1ee	-0.11960207
204	0x3d9ebf7d	0.07751367
205	0xbd0e82a3	-0.034792554
206	0x3d899cb2	0.067193404
207	0xbdddd731	-0.1083206
208	0xbe397c08	-0.1811372
209	0xbe26df18	-0.16296041
210	0xbd0ba0da	-0.034088947
211	0xbe1cdc08	-0.1531831
212	0xbd9a7ced	-0.07543359
213	0xbcf16f95	-0.029472152
214	0x3ca6ebda	0.020376135
215	0x3d81fd5a	0.06347151
216	0xbe33b673	-0.17550068
217	0xbe3c3d90	-0.18382859
218	0xbd6c0271	-0.057619516
219	0xbddd19e3	-0.10795953
220	0xbe35324f	-0.17694972
221	0xbdc84a5a	-0.097798064
222	0x3cc1e3e6	0.02366824
223	0xbd0dde7f	-0.034636017
224	0xbe0724cb	-0.13197629
225	0xbe3339a3	-0.17502455
226	0x3d19c6b9	0.037543032
227	0x3dc75e61	0.09734798
228	0xbd8efa45	-0.06981329
229	0xbda21c36	-0.07915537
230	0x3dbd514f	0.09244024
231	0xbde1ff32	-0.11035003
232	0xbe29e1b5	-0.16590007
233	0x3d99df3c	0.07513282
234	0x3d52e101	0.05148411
235	0x3ca427e0	0.020038545
236	0xbe2e7110	-0.17035317
237	0x3def82f6	0.11694901
238	0xbcd0e921	-0.02550179
239	0xbc15935d	-0.009129372
240	0x3dd04b43	0.10170605
241	0xbc8a080f	-0.016849546
242	0xbe07b6e8	-0.13253367
243	0x3d89d5d9	0.06730241
244	0xbdaef280	-0.08542347
245	0xbd967a63	-0.07347562
246	0xbe17de04	-0.14830786
247	0x3c315406	0.010823255
248	0xbe13c490	-0.14430451
249	0xbd1c8721	-0.038214806
250	0xbd879e70	-0.066220164
251	0xbe0ef48b	-0.13960473
252	0x3ddb3ab7	0.10704558
253	0x3c86f438	0.016473874
254	0x3e1be882	0.15225413
255	0x3da330e2	0.07968308

conv2.bias f4 [32]
0	0xb6cfafda	-6.1895526e-06
1	0x377a9da8	1.4937868e-05
2	0xb67dfb74	-3.7846303e-06
3	0x37b99a6f	2.2125632e-05
4	0x372cc09c	1.0296844e-05
5	0x37c5f05e	2.359616e-05
6	0x361455c4	2.210364e-06
7	0xb78dbc23	-1.6896118e-05
8	0x376e856e	1.4216972e-05
9	0x37d9f80b	2.598392e-05
10	0xb5e10841	-1.6766209e-06
11	0x3714ba49	8.86486e-06
12	0x36d1bfdb	6.2510203e-06
13	0x37daba9c	2.6074522e-05
14	0x37fdeb13	3.0269415e-05
15	0x365a997f	3.2573878e-06
16	0x37751521	1.4608057e-05
17	0xb7b45316	-2.1496362e-05
18	0x3685fe56	3.9933175e-06
19	0x36c131ae	5.7576317e-06
20	0xb73bb271	-1.1187615e-05
21	0xb7a9a8b7	-2.0224934e-05
22	0xb772a4a6	-1.4462659e-05
23	0x37e73a96	2.7564627e-05
24	0xb6285c2e	-2.5087606e-06
25	0xb78104a1	-1.5380154e-05
26	0x365b83db	3.2710293e-06
27	0x377f3771	1.5212093e-05
28	0xb72b2beb	-1.020262e-05
29	0x35862cec	9.996852e-07
30	0x35abf640	1.2812161e-06
31	0xb6ea1827	-6.976555e-06

bn2.weight f4 [32]
0	0x3f40c8c7	0.7530636
1	0x3f904b1e	1.1272924
2	0x3f684d58	0.9074302
3	0x3f3dde38	0.74167204
4	0x3f86575e	1.0495412
5	0x3f831376	1.0240314
6	0x3f597b21	0.84953505
7	0x3f66dcf3	0.9018089
8	0x3f56b408	0.83868456
9	0x3f86422e	1.0488946
10	0x3f866251	1.0498754
11	0x3f833e81	1.025345
12	0x3f3b4b1c	0.7316148
13	0x3f6a2eff	0.9147796
14	0x3f4d389c	0.80164504
15	0x3f86805f	1.0507926
16	0x3f63e3ae	0.89019287
17	0x3f5d164c	0.8636215
18	0x3f5a1081	0.8518143
19	0x3f50d80a	0.8157965
20	0x3f608ad1	0.8771182
21	0x3f5c58e9	0.86073166
22	0x3f732d9b	0.94991463
23	0x3f756744	0.95860696
24	0x3f6269fe	0.8844298
25	0x3f4bea9a	0.7965485
26	0x3f6a9cd4	0.9164555
27	0x3f72f203	0.9490053
28	0x3f8a3cd7	1.0799817
29	0x3f4393a7	0.76397175
30	0x3f514a84	0.81754327
31	0x3f932d49	1.1498195

bn2.bias f4 [32]
0	0xbe93ac20	-0.28842258
1	0xbdf43ea1	-0.11926008
2	0xbe29423c	-0.16529173
3	0xbe3bc145	-0.18335445
4	0xbea7b9b7	-0.32758877
5	0xbd701ce8	-0.058621317
6	0xbecc1b66	-0.39864653
7	0xbeb49d1f	-0.35276124
8	0xbe4f6cef	-0.20256399
9	0xbe5a408d	-0.21313687
10	0xbecece6d	-0.40391865
11	0xbe88a4c1	-0.26688197
12	0xbe4b7861	-0.1987014
13	0xbe8b0697	-0.27153465
14	0xbe5a9c8d	-0.21348782
15	0xbd523ca3	-0.05132736
16	0xbe1b34d9	-0.15156879
17	0xbde7895f	-0.11305498
18	0xbf008602	-0.5020448
19	0xbe735d47	-0.23766051
20	0xbe853e75	-0.26024213
21	0xbe3405c5	-0.17580326
22	0xbeba0208	-0.36329675
23	0xbe8151e4	-0.2525779
24	0xbe92aed1	-0.28649
25	0xbd033f52	-0.03204281
26	0xbe5be194	-0.2147277
27	0x3e0cacd8	0.1373781
28	0xbe1cef6a	-0.15325704
29	0xbec3033e	-0.3808841
30	0xbf1d5438	-0.6145663
31	0xbe3daa39	-0.18521966

bn2.running_mean f4 [32]
0	0xbeca2c3f	-0.39486882
1	0xc0439930	-3.0562248
2	0xc0073920	-2.1128616
3	0x403a941e	2.9152904
4	0xc0143263	-2.3155754
5	0xc0104434	-2.2541628
6	0xc02c887b	-2.69583
7	0xbfb7ddcd	-1.4364563
8	0xc03c5232	-2.9425168
9	0xbffa2241	-1.9541703
10	0xc001b2a0	-2.0265274
11	0xbff3824f	-1.9024142
12	0xc01cb2e0	-2.4484177
13	0xbf9930c5	-1.1968008
14	0xbf98e5a8	-1.1945086
15	0xc07bb8a8	-3.9331455
16	0xbfa31e84	-1.2743688
17	0xbfb80b48	-1.4378443
18	0x3ed0d1ba	0.4078501
19	0xc03b8661	-2.9300768
20	0xc029f1d3	-2.6553848
21	0xbf8f1970	-1.1179638
22	0xc0443b4b	-3.066119
23	0xc0701d39	-3.7517836
24	0xbfffc512	-1.9982016
25	0xbf32699b	-0.6969239
26	0xbf955775	-1.1667315
27	0xc0b845b9	-5.758511
28	0xbf94f6d2	-1.1637824
29	0xc001eb5b	-2.02999
30	0xbea3e67b	-0.3201178
31	0xbfaccb3c	-1.3499522

bn2.running_var f4 [32]
0	0x407fa517	3.9944513
1	0x40f1f16a	7.5607195
2	0x408549ec	4.1652737
3	0x409ff8c9	4.9991193
4	0x40835e8e	4.1052923
5	0x40ac2593	5.3795867
6	0x4083fe65	4.124804
7	0x409a9997	4.8312488
8	0x40945698	4.6355705
9	0x40f6dad0	7.7142105
10	0x4085c539	4.180325
11	0x4093d3ea	4.6196184
12	0x408c50b7	4.384853
13	0x4081af81	4.052674
14	0x4054d0cb	3.3252437
15	0x40bb5ea5	5.8553033
16	0x40bc1fbc	5.878874
17	0x407594f6	3.8372169
18	0x403c3512	2.9407392
19	0x404f5b55	3.2399495
20	0x406f1656	3.7357383
21	0x4039a618	2.9007626
22	0x4050789e	3.257362
23	0x40da2bef	6.817863
24	0x404679ad	3.1011765
25	0x405f240a	3.4865746
26	0x4099dac7	4.807956
27	0x41077fcf	8.468703
28	0x4082155e	4.0651083
29	0x406e6c44	3.725358
30	0x4085670e	4.16883
31	0x410a8944	8.658512

conv3.weight f4 [48, 32, 3, 3]
0	0x3d832ce8	0.064050496
1	0x3ced1fa2	0.028945748
2	0xbd419780	-0.047263622
3	0xbd1b6f15	-0.037947733
4	0xbd562ab6	-0.052286826
5	0xbdbe35ab	-0.0928758
6	0xbe04e817	-0.1297916
7	0xbe172d5a	-0.14763394
8	0xbcf33aed	-0.029691184
9	0x3e0f7477	0.14009272
10	0x3d10f2a0	0.035387635
11	0x3e270b3d	0.16312881
12	0x3d9ae666	0.07563476
13	0xbbe29cb1	-0.0069156517
14	0xbde708af	-0.11280953
15	0x3e359dde	0.17736003
16	0xbd0dcbf9	-0.03461835
17	0xbe84d231	-0.25941613
18	0x3d077709	0.033072505
19	0xbb4525c6	-0.003008233
20	0x3dcddb54	0.10051599
21	0x3c87cbda	0.016576696
22	0x3d6654c4	0.056233183
23	0x3e12e6fd	0.14345928
24	0x3e4168a4	0.18887573
25	0x3e9f33b3	0.3109413
26	0x3e3c5aa4	0.18393952
27	0xbde56eac	-0.112027496
28	0xbd4df122	-0.05027879
29	0xbdb72e85	-0.0894442
30	0xbd641440	-0.055683374
31	0xbdbdafe9	-0.09262068
32	0xbdc37a98	-0.09544867
33	0xbd4f96c8	-0.050680906
34	0xbd69d8ad	-0.057091404
35	0x3b4dfdb7	0.0031431743
36	0x3dbfe147	0.0936914
37	0x3e0fdfdf	0.14050244
38	0x3e113d83	0.14183621
39	0x3b6dde8b	0.0036295976
40	0xbe29fd10	-0.16600442
41	0xbdb5232e	-0.088446006
42	0xbe29c882	-0.16580394
43	0xbe185815	-0.1487735
44	0xbde16f3e	-0.11007546
45	0xbe2b7f76	-0.16747841
46	0xbe4857d7	-0.19564758
47	0xbe153e35	-0.14574511
48	0xbda4a97e	-0.080401406
49	0xbba8bdd5	-0.005149583
50	0x3d024e3c	0.03181289
51	0x3e8af558	0.27140307
52	0x3d7b6ed1	0.06138498
53	0x3e506c4c	0.20353812
54	0x3e1d5eb5	0.15368159
55	0xbd4eb48e	-0.05046516
56	0xbcdc1921	-0.026867451
57	0xbdb90947	-0.09034973
58	0xbe015191	-0.12628771
59	0x3da3f64c	0.08005962
60	0xbdc3382a	-0.09532197
61	0x3c4b5750	0.012410954
62	0x3db6d94c	0.08928165
63	0xbdead3c8	-0.11466175
64	0xbdad8e78	-0.084744394
65	0xbdb07adf	-0.08617186
66	0xbdc2f01d	-0.09518454
67	0xbe47b758	-0.19503534
68	0xbe13c23e	-0.14429566
69	0xbcda8eeb	-0.026679477
70	0xbdeb6826	-0.11494474
71	0x3e33d527	0.1756178
72	0x3e5547bd	0.20828147
73	0x3e0b8326	0.13624248
74	0x3d07c900	0.033150673
75	0xbdc0ae06	-0.09408192
76	0xbdedc78e	-0.11610328
77	0xbdffce25	-0.12490491
78	0x3dd9ab59	0.10628385
79	0x3e45fdb4	0.19335061
80	0xbd058e78	-0.032606572
81	0xbe0eb96c	-0.1393792
82	0xbdecd772	-0.115645304
83	0xbd48221d	-0.048860658
84	0xbe4dcf6f	-0.20098661
85	0xbe1a437e	-0.15064809
86	0x3d4c916b	0.04994337
87	0x3e10c17a	0.14136305
88	0x3d0a4ed7	0.033766594
89	0x3e8df4c5	0.27725807
90	0x3d47930f	0.04872423
91	0x3e99bbae	0.30026
92	0x3c8d0aa1	0.017216982
93	0x3e1d5e72	0.1536806
94	0x3d9d9c36	0.076958105
95	0x3e058082	0.13037303
96	0x3e146ccd	0.14494629
97	0xbd1c4ec8	-0.03816107
98	0xbbe41673	-0.006960684
99	0xbd8a7ef9	-0.06762499
100	0xbdf40f56	-0.119169876
101	0x3e1dcab1	0.15409352
102	0x3cb3c663	0.021945184
103	0xbcbef1df	-0.023308692
104	0x3e3ad325	0.18244608
105	0x3db641ca	0.08899267
106	0xbe1a2ded	-0.15056582
107	0xbe137bec	-0.14402741
108	0x3e6eef06	0.23333368
109	0x3d8b3108	0.06796461
110	0x3e558ef9	0.20855321
111	0xbdcb226c	-0.09918675
112	0xbdacc21a	-0.084354594
113	0xbe4b0214	-0.19825011
114	0xbde173bf	-0.11008405
115	0x3ce43a22	0.027859751
116	0xbe48cb79	-0.19608869
117	0x3dea5104	0.11441234
118	0xbb75b0f4	-0.0037489505
119	0xbbcc5397	-0.0062355506
120	0xbe1e37f9	-0.1545104
121	0xbe62e534	-0.22157747
122	0xbe8b8f04	-0.2725755
123	0x3eac31b1	0.33631662
124	0x3df7c0e5	0.120973386
125	0xbc96eb9d	-0.018422896
126	0xbe237908	-0.15964139
127	0xbdb59b1a	-0.08867474
128	0x3ced59f8	0.028973565
129	0xbd975d44	-0.07390836
130	0xbccd45c7	-0.025057686
131	0x3cbfce7b	0.023413887
132	0x3d7f8a9a	0.06238804
133	0x3e4417a2	0.1914964
134	0x3e12c71d	0.14333768
135	0x3dda337e	0.106543526
136	0x3d5ce8a2	0.053932793
137	0xbdd14488	-0.102181494
138	0xbe86ccc7	-0.26328108
139	0xbe84c7ea	-0.25933772
140	0xbea0c9c7	-0.31403944
141	0x3c1ac47e	0.009446261
142	0xba980381	-0.0011597724
143	0xbb30c06d	-0.0026970163
144	0x3d884822	0.06654383
145	0xbdc7a37d	-0.0974798
146	0xbe05cb9f	-0.13065957
147	0xbd23fccb	-0.040036004
148	0xbdd95a74	-0.10612956
149	0xbdb4f73a	-0.08836217
150	0xbe057e21	-0.13036396
151	0xbd3cc981	-0.046090607
152	0xbd4088ec	-0.04700558
153	0xbdb10816	-0.086441204
154	0x3c64ba4d	0.013960433
155	0x3da0b90b	0.07847794
156	0xbe26142f	-0.16218637
157	0xbd83b8b4	-0.06431714
158	0x3cd18e0c	0.025580429
159	0xbe13b64d	-0.14425011
160	0x3c525781	0.012838245
161	0x3cf294ef	0.029612033
162	0x3e025a0c	0.12729663
163	0xbddac297	-0.10681646
164	0x3cb2e9a4	0.021839924
165	0x3b942035	0.004520441
166	0x3a10bac4	0.00055209943
167	0x3cc9c5b5	0.024630407
168	0xbd7d6ba4	-0.061870232
169	0x3d59a55d	0.05313622
170	0x3cc73aab	0.024319967
171	0x3da31060	0.07962108
172	0x3dac5f35	0.08416597
173	0x3cffd3b2	0.031228874
174	0xbe23976e	-0.15975735
175	0xbe286369	-0.16444172
176	0xbe0270d4	-0.12738353
177	0xbe4c66e1	-0.1996112
178	0xbe1ea4ac	-0.15492505
179	0x3cb15aa3	0.021649664
180	0x3e1111be	0.14166924
181	0x3df96df0	0.12179172
182	0xb8419f13	-4.6162935e-05
183	0xbd9441ad	-0.07239089
184	0xbe3ae956	-0.18253073
185	0xbe200979	-0.15628614
186	0xbb0cbb11	-0.0021473805
187	0xbd201814	-0.039085463
188	0xbd84401c	-0.064575404
189	0xbe3cfa5e	-0.18454883
190	0xbe4deebc	-0.20110601
191	0xbc2357d9	-0.009969675
192	0xbe0216ec	-0.12704057
193	0xbe65b8e3	-0.2243381
194	0xbde59e27	-0.11211806
195	0xbc900ef8	-0.017585263
196	0x3cade3ad	0.021226728
197	0xbd2489c8	-0.04017046
198	0x3e3059d7	0.17221771
199	0x3da950b1	0.08267344
200	0xbce88f0e	-0.028388526
201	0xbe250b44	-0.16117579
202	0xbe640291	-0.22266604
203	0xbe5af300	-0.2138176
204	0xbea43dba	-0.32078344
205	0xbea70d8c	-0.32627523
206	0xbd557fb5	-0.052123744
207	0x3e690bce	0.2275841
208	0x3e8bec02	0.27328497
209	0x3e25a98d	0.1617796
210	0x3d5dbc3f	0.054134604
211	0xbdd0a37f	-0.101874344
212	0xbdcb7fad	-0.099364616
213	0x3df49e36	0.11944239
214	0xbd88fdaf	-0.06689011
215	0xbc2d7f61	-0.0105894515
216	0x3e0e73ca	0.13911358
217	0xbca491ab	-0.020088991
218	0xbe2cda60	-0.16880178
219	0xbe090af6	-0.13383088
220	0xbe3086e7	-0.17238961
221	0xbd33626f	-0.043795045
222	0xbe2899e7	-0.16464959
223	0xbd354a5a	-0.04426036
224	0xbcb9b585	-0.022669563
225	0xbec3ddb9	-0.38255098
226	0xbeae0d8f	-0.3399472
227	0xbdfbe4ce	-0.122995004
228	0x3df77cd9	0.1208436
229	0x3e726cf2	0.23674372
230	0x3e97e949	0.2967017
231	0x3e910f9f	0.2833223
232	0x3d1eeebe	0.0388019
233	0xbd1a9a42	-0.037744768
234	0x3d15d076	0.036575757
235	0xbcd0436e	-0.025422778
236	0xbe2c22aa	-0.16810098
237	0x3dac7ebc	0.0842261
238	0xbe14ba18	-0.14524114
239	0xbe63d1cc	-0.22248
240	0xbd86192c	-0.0654777
241	0xbe834f38	-0.25646377
242	0xbe5b294e	-0.21402475
243	0x3d8a35e9	0.06748564
244	0x3dd06cfd	0.10177038
245	0x3dc76252	0.0973555
246	0xbde34325	-0.11096791
247	0xbd8c6a80	-0.06856251
248	0xbd52c159	-0.051453922
249	0xbb5682ba	-0.0032731728
250	0x3dde9096	0.10867421
251	0x3dbc472a	0.09193261
252	0xbeb5c80d	-0.3550419
253	0xbecabd5b	-0.39597592
254	0xbeb655b3	-0.35612258
255	0xbd895b0d	-0.0670682

conv3.bias f4 [48]
0	0xb6c3e2a7	-5.8378387e-06
1	0xb7252a65	-9.844637e-06
2	0xb70c57db	-8.365106e-06
3	0x36fb9cc4	7.498633e-06
4	0x363dd882	2.8289219e-06
5	0x37232661	9.724493e-06
6	0x379c113a	1.8604671e-05
7	0xb62d1e19	-2.5796528e-06
8	0x35b18dce	1.3228798e-06
9	0xb7acf25a	-2.0616852e-05
10	0x36f7e365	7.387646e-06
11	0x3620bd9f	2.3952232e-06
12	0xb76893a6	-1.3862655e-05
13	0x35a3e8bb	1.221218e-06
14	0xb73ec5e5	-1.1370958e-05
15	0xb66d07aa	-3.5320213e-06
16	0xb56a6bfd	-8.7328937e-07
17	0x379c75cf	1.8651508e-05
18	0x372fedbb	1.0486164e-05
19	0xb68937a9	-4.089398e-06
20	0x3725e426	9.887886e-06
21	0x36343216	2.6851244e-06
22	0xb73dc72b	-1.131165e-05
23	0xb6dd54ff	-6.596208e-06
24	0xb75e96eb	-1.32673695e-05
25	0xb51447a7	-5.5238564e-07
26	0xb76ae616	-1.4001058e-05
27	0xb70ff04e	-8.5794145e-06
28	0xb6175d70	-2.2555141e-06
29	0xb69c7535	-4.662807e-06
30	0xb4a2db1b	-3.0334272e-07
31	0xb71637e2	-8.953708e-06
32	0xb72eed09	-1.0426397e-05
33	0xb6d693b9	-6.394894e-06
34	0x3541acd0	7.214958e-07
35	0xb6497a0f	-3.0022381e-06
36	0x36109f32	2.1550336e-06
37	0x35ad78b3	1.2924633e-06
38	0x36d2e22c	6.2848176e-06
39	0xb6ca6d46	-6.03279e-06
40	0x3792d2a4	1.7502643e-05
41	0x371426ab	8.8304905e-06
42	0xb6c39267	-5.8284963e-06
43	0x37389d28	1.1003845e-05
44	0xb74e4895	-1.2295456e-05
45	0xb4f6face	-4.6003555e-07
46	0xb602e470	-1.9504478e-06
47	0xb7a40732	-1.9553674e-05

bn3.weight f4 [48]
0	0x3f4240f6	0.7588037
1	0x3fa2bcf1	1.271391
2	0x3f5786df	0.8419017
3	0x3f593d04	0.8485873
4	0x3f2918c5	0.6605342
5	0x3f416b15	0.7555402
6	0x3f48003c	0.7812536
7	0x3f65e6a4	0.89805055
8	0x3f4544de	0.7705821
9	0x3f6f54f5	0.9348901
10	0x3f6b105b	0.9182183
11	0x3f314ffe	0.69262683
12	0x3f6dcd39	0.9289127
13	0x3f335177	0.7004618
14	0x3f435df8	0.7631526
15	0x3f46dc61	0.7768002
16	0x3f57e03f	0.8432655
17	0x3f5cfd8a	0.8632437
18	0x3f5bd486	0.8587116
19	0x3f62a42d	0.8853176
20	0x3f821734	1.0163331
21	0x3f54201e	0.82861507
22	0x3f4f7e2d	0.81051904
23	0x3f876f35	1.0580813
24	0x3f5fb8a7	0.8739113
25	0x3f39d660	0.72592735
26	0x3f943899	1.1579772
27	0x3f622d1c	0.8835008
28	0x3f4839fd	0.78213483
29	0x3f5c6ef9	0.8610683
30	0x3f60f1db	0.8786904
31	0x3fa83c56	1.3143413
32	0x3f6e3a5b	0.93057793
33	0x3f4909f7	0.7853083
34	0x3f1259eb	0.57168454
35	0x3f52080d	0.82043535
36	0x3f38b7c0	0.7215538
37	0x3f3125bd	0.6919821
38	0x3f419472	0.75617135
39	0x3f571840	0.8402138
40	0x3f83739a	1.0269654
41	0x3f2ddcff	0.6791534
42	0x3f65d33e	0.89775455
43	0x3f3fc077	0.74903053
44	0x3f454691	0.770608
45	0x3f58ab7e	0.84636676
46	0x3f860cfb	1.0472711
47	0x3f6b9fa7	0.92040485

bn3.bias f4 [48]
0	0xbf129da0	-0.57271767
1	0xbeef1067	-0.46692201
2	0xbea3db45	-0.32003227
3	0xbe8ad0e7	-0.27112505
4	0xbf3290fd	-0.69752485
5	0xbf2fd433	-0.68683165
6	0xbe8735dc	-0.2640828
7	0xbebc8e39	-0.36827257
8	0xbf3a24d9	-0.72712475
9	0xbeed6399	-0.4636505
10	0xbf32fad7	-0.69914
11	0xbf19a7ae	-0.60021484
12	0xbf1d912f	-0.6154966
13	0xbf5bba37	-0.85831016
14	0xbf320c0b	-0.69549626
15	0xbf1c578e	-0.610711
16	0xbebb3c5e	-0.36569494
17	0xbf649c4e	-0.89301
18	0xbf0c0aee	-0.5470418
19	0xbe65172b	-0.22372119
20	0xbe876f29	-0.26451996
21	0xbf3c0d97	-0.73458236
22	0xbef6bec0	-0.48192406
23	0xbebabf68	-0.36474156
24	0xbe9d4d6b	-0.30723128
25	0xbefe175d	-0.496272
26	0xbee9854f	-0.4560952
27	0xbf1828c0	-0.5943718
28	0xbeeac4d5	-0.45853296
29	0xbed6235a	-0.41823846
30	0xbeb5f23f	-0.35536382
31	0xbeeff3ae	-0.468656
32	0xbeaa023d	-0.33204833
33	0xbe5d09d4	-0.2158578
34	0xbf042bc6	-0.5162929
35	0xbf2f021e	-0.68362606
36	0xbefe3258	-0.49647784
37	0xbed3b7f6	-0.4135129
38	0xbf116450	-0.5679369
39	0xbed2017a	-0.41016752
40	0xbe3377f5	-0.17526229
41	0xbeb7d02e	-0.35901016
42	0xbef48393	-0.47756633
43	0xbf018f8c	-0.5060966
44	0xbf2a1256	-0.6643423
45	0xbeab7dc7	-0.33494398
46	0xbe80f28f	-0.25185058
47	0xbe9fe742	-0.31231123

bn3.running_mean f4 [48]
0	0xbfabd52b	-1.3424429
1	0xc06b675d	-3.6781838
2	0xc0428b06	-3.0397353
3	0xbf018c6b	-0.50604886
4	0xbfc1675a	-1.5109665
5	0x3e95de9d	0.29271403
6	0xbf89dd11	-1.0770589
7	0xbfeac719	-1.834201
8	0xbf91db5a	-1.1395066
9	0xc05b96c4	-3.431077
10	0xc052de15	-3.2948048
11	0xbf1191ab	-0.56862897
12	0xbe8f1cd7	-0.2795169
13	0x3f554183	0.8330309
14	0xbec9f662	-0.39445788
15	0xbf82b593	-1.0211662
16	0xc06858df	-3.6304243
17	0xc0136a78	-2.3033733
18	0x401279a8	2.2886753
19	0xbe16324a	-0.14667621
20	0xbeda1795	-0.42596117
21	0xc063e6d7	-3.5609643
22	0xc044b4cf	-3.0735357
23	0xbf59285d	-0.84827214
24	0xc05c7115	-3.444402
25	0xc01a6e81	-2.4129946
26	0xc09b6272	-4.8557673
27	0xbfe65fc8	-1.799798
28	0xbe6aef35	-0.22942813
29	0xbfb6a7e3	-1.4269985
30	0xbf87053d	-1.0548474
31	0xc03212ec	-2.782405
32	0xbdc817e9	-0.097701855
33	0xc0874a0d	-4.2277894
34	0xbfd671a8	-1.6753435
35	0xbf629bff	-0.8851928
36	0xbe90a8aa	-0.2825368
37	0xbf4e6551	-0.80623347
38	0xbfd98e15	-1.6996485
39	0xbfb16250	-1.3858128
40	0xbff57189	-1.9175273
41	0x3f1bceed	0.6086262
42	0xc06d39ba	-3.7066483
43	0x3d8adac4	0.067800075
44	0xc0067167	-2.1006715
45	0xbfd9c6da	-1.701381
46	0xc0631dda	-3.548697
47	0xc05acdc5	-3.4188092

bn3.running_var f4 [48]
0	0x40365666	2.8490233
1	0x40e735c6	7.225314
2	0x4087e6ab	4.2469077
3	0x408b0f30	4.345604
4	0x4040eaa6	3.0143218
5	0x4003ce48	2.0594654
6	0x4080f933	4.03042
7	0x40a2a2a2	5.0823526
8	0x403af8c7	2.9214342
9	0x40764f39	3.8485854
10	0x407c13fc	3.9387197
11	0x4049ccb9	3.1531203
12	0x402888fa	2.6333604
13	0x40897f75	4.2968087
14	0x401f2317	2.4865167
15	0x4064b67b	3.5736377
16	0x405c4d0b	3.4422023
17	0x402d1840	2.704605
18	0x4088cbac	4.2748623
19	0x40cdc1fa	6.429929
20	0x40a76145	5.2306237
21	0x401d4302	2.4572148
22	0x400d9905	2.2124646
23	0x410421cd	8.258252
24	0x4089ae4d	4.302527
25	0x40245b75	2.568082
26	0x41285432	10.5205555
27	0x40895853	4.292032
28	0x40130e43	2.2977455
29	0x403c4786	2.9418654
30	0x408ecb17	4.4622912
31	0x40f61f48	7.6913185
32	0x409ba6dd	4.864119
33	0x4065f6cb	3.593188
34	0x40157945	2.3355267
35	0x402b55d2	2.677113
36	0x402f1e50	2.7362251
37	0x40477f56	3.117147
38	0x4022359d	2.5345223
39	0x404a561d	3.161506
40	0x40b42c5f	5.6304164
41	0x40426a52	3.0377393
42	0x404b165a	3.1732392
43	0x404593b5	3.0871403
44	0x400d6586	2.2093215
45	0x40465ca8	3.0994053
46	0x40c94123	6.2892013
47	0x4072af78	3.7919598

conv4.weight f4 [64, 48, 3, 3]
0	0x3cb22833	0.021747684
1	0xbd2898fd	-0.041161526
2	0xbda16f2e	-0.07882534
3	0x3df62233	0.12018242
4	0xbda67fba	-0.08129831
5	0xbd5afa3b	-0.053461295
6	0x3d6bd487	0.05757573
7	0xbd7021e6	-0.058626078
8	0xbb670782	-0.0035252278
9	0x3caaf3c9	0.020868199
10	0x3d5f8c02	0.05457688
11	0x3e525609	0.20540632
12	0x3d8eaf76	0.0696706
13	0x3db1ee80	0.086880684
14	0x3dddf7ea	0.108383015
15	0x3dd8ce39	0.10586209
16	0xbdbc8145	-0.09204344
17	0xbdaebbd7	-0.08531921
18	0xbc87b889	-0.016567485
19	0xbdf6fdaf	-0.12060105
20	0xbe14519f	-0.14484261
21	0x3e4aefe7	0.19818078
22	0x3d937e19	0.072017856
23	0x3dbf4e88	0.093411505
24	0x3db3093f	0.08741998
25	0xbd3498bb	-0.044090968
26	0xbbe1757a	-0.0068804594
27	0x3d6f9804	0.058494583
28	0xbc06d941	-0.008230508
29	0x3e030018	0.12793005
30	0x3d8e6135	0.069521345
31	0x3ccafa10	0.024777442
32	0x3d27815b	0.040894847
33	0xbd711ead	-0.058867145
34	0xbe2175ce	-0.15767595
35	0xbe557b17	-0.20847736
36	0x3da9b46f	0.08286368
37	0x3d974dd7	0.07387894
38	0x3d517b0b	0.051142734
39	0x3d383e2c	0.044981167
40	0x3d6ef59e	0.058339708
41	0x3dc27065	0.09494094
42	0xbe7520b3	-0.23938255
43	0xbe335af9	-0.17515172
44	0x3da8983a	0.0823216
45	0x3e149097	0.14508282
46	0xbd4c45e5	-0.049871344
47	0xbcc121f6	-0.023575764
48	0x3d1e86ff	0.03870296
49	0xbdc2098b	-0.094744764
50	0xbd664dfd	-0.05622672
51	0x3cca82ac	0.024720512
52	0xbdb0a647	-0.08625465
53	0xbe163ae5	-0.14670904
54	0xbd5f921d	-0.054582704
55	0x3cfd0743	0.030887252
56	0x3b211ecc	0.0024585007
57	0xbdd4ef2c	-0.10397181
58	0xbe33e2bf	-0.17566966
59	0xbc6fee16	-0.014644166
60	0xbde6b3a9	-0.11264736
61	0xbdb0047c	-0.08594605
62	0x3e04d49a	0.12971726
63	0x3d6166e3	0.05502976
64	0xbc08be58	-0.008346163
65	0xbe1ac646	-0.15114698
66	0x3e272fad	0.1632678
67	0x3d273f25	0.040831704
68	0xbe1c6e57	-0.15276466
69	0x3e805f15	0.25072542
70	0x3db97624	0.09055737
71	0x3cacec36	0.021108728
72	0x3cda6322	0.026658598
73	0xbe2f3578	-0.1711024
74	0xbd33ccb3	-0.04389639
75	0x3e5a2ee7	0.21306954
76	0x3d9f05c9	0.07764775
77	0xbdc8d4d3	-0.09806218
78	0x3de95495	0.11393086
79	0xbe88a219	-0.2668617
80	0xbeb1ebce	-0.34750217
81	0xbe9fa7ed	-0.31182805
82	0xbe0ccd64	-0.13750225
83	0x3e0cb35e	0.13740298
84	0xbdccf443	-0.10007527
85	0x3e77aefa	0.24187842
86	0x3ebeffb6	0.37304467
87	0xbda5cf13	-0.08096137
88	0x3dc73dd3	0.09728589
89	0x3e3daf0d	0.18523808
90	0x3df6740e	0.120338544
91	0x3dcfa965	0.10139731
92	0xbd18d334	-0.037310794
93	0x3e0b70f5	0.13617308
94	0x3e0d756e	0.13814327
95	0x3d12bab3	0.03582258
96	0x3d7ba311	0.06143481
97	0x3b0b664f	0.0021270697
98	0xbcf2701a	-0.02959447
99	0xbd974c0d	-0.073875524
100	0xbdbba0e8	-0.0916155
101	0xbcae0703	-0.021243578
102	0x3dd594dd	0.10428784
103	0x3dd62829	0.10456879
104	0xbd5e5156	-0.054276787
105	0xbd391a8d	-0.045191336
106	0xbe091e31	-0.13390423
107	0xbe7aa6a4	-0.24477631
108	0xbdebaaff	-0.11507224
109	0xbe0ad6f8	-0.13558567
110	0x3c3bbc99	0.011458539
111	0xbe80abfc	-0.25131214
112	0xbe39aaec	-0.18131608
113	0xbe124e49	-0.14287676
114	0xbda3cedb	-0.07998439
115	0xbd74aba7	-0.059734013
116	0x3e0e388c	0.13888758
117	0x3e4003d4	0.1875146
118	0xbd946233	-0.072452925
119	0xbc20029a	-0.009766245
120	0x3e2e15ad	0.17000456
121	0xbcc3e9cc	-0.023915194
122	0xbe1272ab	-0.14301555
123	0xbc65b520	-0.014020234
124	0xbe737c83	-0.23777966
125	0xbe79800f	-0.24365257
126	0x3d539d8c	0.05166392
127	0x3afd1573	0.001930876
128	0x3c2d789f	0.01058784
129	0xbbce67ea	-0.0062990086
130	0xbd2a6d2f	-0.04160803
131	0xbe2d2fde	-0.16912791
132	0x3b219e19	0.0024660884
133	0xbc315f8c	-0.010826003
134	0xbdb040ef	-0.08606135
135	0x3d380e83	0.044935714
136	0x3e01fb94	0.12693626
137	0x3d90b6a9	0.0706609
138	0xbc0e3fd6	-0.008682212
139	0x3e264e2e	0.1624076
140	0x3e48ee17	0.19622074
141	0xbd75d8ca	-0.0600212
142	0xbd9632d4	-0.073339134
143	0x3d674d3f	0.056470152
144	0x3dcfe8e8	0.10151845
145	0xbca063e3	-0.01957888
146	0xba7b6a1c	-0.00095907017
147	0xbe07d92d	-0.1326644
148	0xbda00f9b	-0.078154765
149	0xbd5b39cb	-0.053521913
150	0x3e2a5a69	0.16636051
151	0x3e07a243	0.13245492
152	0x3bea29ae	0.007146082
153	0xbda607b6	-0.081069395
154	0xbe037d0f	-0.12840675
155	0x3db0b75f	0.08628725
156	0xbe2e5901	-0.1702614
157	0xbd92a943	-0.0716119
158	0xbdf93f57	-0.12170284
159	0xbc532a2d	-0.012888473
160	0x3d0bd837	0.034141745
161	0xbd76c600	-0.06024742
162	0x3d8bdf31	0.0682968
163	0xbc0624ea	-0.008187512
164	0x3ca87b67	0.020566655
165	0x3e3df4b0	0.18550372
166	0xbd0bb5f1	-0.03410906
167	0xbd0d0fa0	-0.03443873
168	0x3cd9b3b5	0.026574949
169	0xbe244f48	-0.16045868
170	0xbdd5ec1e	-0.104454264
171	0x3ceb6c45	0.02873815
172	0xb9d5be38	-0.0004076825
173	0xbc7eba5d	-0.015547362
174	0xbe26ee9b	-0.16301958
175	0xbdf2d37d	-0.118567444
176	0xbe065084	-0.13116652
177	0xbdf9ecd0	-0.122033715
178	0xbd9f667b	-0.077832185
179	0xbd89f10f	-0.067354314
180	0xbe5b52ec	-0.21418351
181	0xbd65a545	-0.056065816
182	0x3e0b3801	0.13595583
183	0xbe12743b	-0.14302151
184	0xbe1e220e	-0.15442678
185	0x3e08dc18	0.13365209
186	0xbe2c5f3f	-0.16833209
187	0xbe2c1293	-0.1680396
188	0x3cb6e45a	0.022325683
189	0x3d1a9ac5	0.037745256
190	0xbe122410	-0.14271569
191	0xbdf30356	-0.11865871
192	0x3e0e4cbb	0.13896458
193	0xbdabd6e9	-0.083906
194	0xbd2bd6bb	-0.04195283
195	0xbc2256b6	-0.009908369
196	0xbe04cb2a	-0.12968126
197	0xbe7668a5	-0.24063356
198	0xbd94d46a	-0.07267077
199	0xbd935ccc	-0.07195434
200	0xbbb33d78	-0.005469974
201	0x3e1f11a8	0.15534079
202	0x3d90206c	0.07037434
203	0xbd345068	-0.044021994
204	0xbe064820	-0.13113451
205	0xbd10801f	-0.035278436
206	0xbdf5ea21	-0.12007547
207	0xbe0bec92	-0.13664463
208	0xbdb93211	-0.090427525
209	0xbdc650a0	-0.09683347
210	0xbe12fcee	-0.14354298
211	0xbdd0bf6d	-0.101927616
212	0xbbb24c6b	-0.0054412386
213	0x3dbd9ecb	0.09258803
214	0xbd5944b9	-0.053044055
215	0xbc80cba2	-0.0157221
216	0x3e368214	0.17823058
217	0xbd411010	-0.04713446
218	0xbe387820	-0.18014574
219	0xbe1577b5	-0.14596446
220	0xbe549a97	-0.20762096
221	0xbd8c43b2	-0.06848849
222	0x3cc1a0cb	0.023636242
223	0xbd41bff3	-0.047302198
224	0xbd2d7842	-0.042351015
225	0x3e03b70b	0.12862794
226	0x3d8a65fd	0.06757734
227	0xbda112a7	-0.07864886
228	0x3dd0d8e6	0.1019762
229	0xbd8f3f19	-0.06994457
230	0xbe0d7bdf	-0.13816784
231	0x3e12fd7c	0.14354509
232	0xbdb31d58	-0.08745831
233	0xbdaee755	-0.08540217
234	0xbd812a82	-0.06306936
235	0xbd65786c	-0.056023046
236	0x3e017cec	0.1264531
237	0x3df6b551	0.12046302
238	0x3a3b767c	0.00071511394
239	0x3e733a3a	0.2375268
240	0x3d967b25	0.07347707
241	0x3cee3be2	0.029081289
242	0x3d384c37	0.04499456
243	0xbe29e8f1	-0.16592766
244	0xbe12686f	-0.14297651
245	0x3e073911	0.13205363
246	0x3c64ac2b	0.013957064
247	0x3d27c104	0.04095556
248	0x3e444694	0.19167548
249	0xbd0b1290	-0.03395325
250	0x3c8359ec	0.016034089
251	0x3e0bedbf	0.13664912
252	0x3e2e19b5	0.17001994
253	0x3bc4eed3	0.0060099154
254	0x3cf5b8f2	0.029995415
255	0x3e904f1c	0.28185356

conv4.bias f4 [64]
0	0x35487707	7.4679014e-07
1	0x3489e680	2.568595e-07
2	0xb675bae3	-3.6616627e-06
3	0xb6b36b28	-5.3470903e-06
4	0x3685d393	3.9883394e-06
5	0x36316d0c	2.643853e-06
6	0x367a2a4e	3.7277528e-06
7	0xb605e8cf	-1.9954057e-06
8	0x371299b9	8.7380695e-06
9	0xb67a26b0	-3.7275422e-06
10	0x3638206b	2.7437006e-06
11	0xb686c99a	-4.0169807e-06
12	0xb60bb4b3	-2.0817795e-06
13	0xb6d42f03	-6.3235652e-06
14	0x36da831f	6.512171e-06
15	0x36a3ddeb	4.883613e-06
16	0x36ad4a56	5.1644556e-06
17	0xb687efa4	-4.0512114e-06
18	0xb62b9b21	-2.5571283e-06
19	0x37272f25	9.964952e-06
20	0x368cb2df	4.1931485e-06
21	0x35e214db	1.6844382e-06
22	0x3752899e	1.2549017e-05
23	0xb68b96da	-4.1600842e-06
24	0x368fc98c	4.2851952e-06
25	0xb591c3c7	-1.0860321e-06
26	0xb6885f58	-4.0642153e-06
27	0x36a2740b	4.8414854e-06
28	0x37339a0c	1.0705098e-05
29	0xb35ca5c7	-5.1373515e-08
30	0x364b171b	3.0262806e-06
31	0x36314542	2.6415369e-06
32	0xb71d514f	-9.37686e-06
33	0x37563d36	1.2769646e-05
34	0x364cc251	3.0511476e-06
35	0xb7b61d52	-2.1709744e-05
36	0xb618e643	-2.2783795e-06
37	0x36efa0bb	7.1414665e-06
38	0xb4d554e0	-3.9736096e-07
39	0x36ccc7ea	6.102947e-06
40	0xb7332a0f	-1.0679024e-05
41	0xb7897a25	-1.638855e-05
42	0x36860206	3.9937468e-06
43	0xb7cd51da	-2.447602e-05
44	0x37a043f7	1.9105135e-05
45	0xb60c645d	-2.0920045e-06
46	0x3783c097	1.5706099e-05
47	0xb6d4e0eb	-6.3442762e-06
48	0xb5bed740	-1.4218749e-06
49	0xb5ee9220	-1.777491e-06
50	0xb549e552	-7.521204e-07
51	0xb3b06a66	-8.2149924e-08
52	0x3611cb97	2.1725189e-06
53	0xb70b1ca4	-8.291714e-06
54	0x36bef59a	5.691033e-06
55	0x3688596f	4.0635273e-06
56	0xb5953c9c	-1.1119005e-06
57	0xb6768215	-3.6732574e-06
58	0xb6f69ece	-7.3498586e-06
59	0xb5f1f1a7	-1.8026229e-06
60	0x362d461a	2.5819813e-06
61	0xb61e0e2a	-2.355208e-06
62	0x36fcadce	7.5304188e-06
63	0x3542e012	7.2596697e-07

bn4.weight f4 [64]
0	0x3f1f819c	0.62307143
1	0x3f49dccc	0.78852534
2	0x3f363a04	0.71182275
3	0x3f470e3e	0.77756107
4	0x3f192d3c	0.5983465
5	0x3f0af350	0.54277515
6	0x3f2f46a9	0.68467194
7	0x3f410864	0.7540343
8	0x3f282285	0.6567767
9	0x3f2dd4bc	0.6790273
10	0x3f2b1e11	0.6684275
11	0x3f6abba6	0.9169258
12	0x3f4ce59f	0.80037874
13	0x3f2ef2ae	0.6833905
14	0x3f2148ea	0.63001883
15	0x3f30ac43	0.6901285
16	0x3f0e3315	0.55546695
17	0x3f02012b	0.5078303
18	0x3f46cbb6	0.7765459
19	0x3f41a71c	0.75645614
20	0x3eee06cf	0.4648957
21	0x3f1e764f	0.61899275
22	0x3f454662	0.7706052
23	0x3f36a73d	0.71348935
24	0x3f45647d	0.7710646
25	0x3f3442f9	0.7041469
26	0x3f4f2de4	0.809294
27	0x3f31b4dc	0.69416595
28	0x3f012de0	0.50460625
29	0x3f5b5da2	0.8568975
30	0x3f308161	0.68947417
31	0x3f4578fc	0.7713773
32	0x3f45ff28	0.7734246
33	0x3f5dfebb	0.8671681
34	0x3f10415d	0.56349736
35	0x3f3e4ea7	0.74338764
36	0x3f3f647b	0.74762696
37	0x3f48fab7	0.7850756
38	0x3f440a6e	0.76578414
39	0x3f401cb9	0.7504383
40	0x3f3aa0db	0.72901696
41	0x3f51a22e	0.8188809
42	0x3f44c742	0.76866543
43	0x3f43e207	0.76516765
44	0x3f3aea29	0.7301355
45	0x3f00af9f	0.50267977
46	0x3f59f592	0.85140336
47	0x3f4a93ba	0.7913166
48	0x3f4b7dcd	0.7948883
49	0x3f271023	0.65259
50	0x3f220abf	0.6329765
51	0x3f311f9b	0.6918885
52	0x3f125fc0	0.5717735
53	0x3f38f285	0.72245055
54	0x3f35b632	0.70981133
55	0x3f555e1b	0.8334672
56	0x3f459075	0.7717355
57	0x3f2c56f2	0.6732017
58	0x3f5e1dc1	0.8676415
59	0x3f0cd010	0.5500498
60	0x3f0340cf	0.51270765
61	0x3f0ba536	0.54548967
62	0x3f2a92c7	0.66630214
63	0x3f19ca07	0.60073894

bn4.bias f4 [64]
0	0xbee35409	-0.4440005
1	0xbeed2082	-0.46313864
2	0xbf08abf3	-0.53387374
3	0xbf08710e	-0.5329751
4	0xbecfb61e	-0.40568632
5	0xbf12e1ed	-0.57375985
6	0xbf08a43b	-0.53375596
7	0xbef4c066	-0.47803038
8	0xbed9e4af	-0.42557284
9	0xbf1a9698	-0.6038604
10	0xbf07e6f7	-0.530868
11	0xbf11caab	-0.5694987
12	0xbef72c24	-0.48275864
13	0xbf04c617	-0.5186476
14	0xbef35227	-0.47523615
15	0xbeeaeebe	-0.4588527
16	0xbf06c931	-0.52650744
17	0xbf03154d	-0.5120438
18	0xbf15c207	-0.5849919
19	0xbf063e74	-0.52439046
20	0xbf0b5fe9	-0.5444322
21	0xbf0aab09	-0.5416723
22	0xbf004206	-0.50100744
23	0xbef8c2a0	-0.48585987
24	0xbf16f69d	-0.5897005
25	0xbeff0ead	-0.49815884
26	0xbf0417d9	-0.5159889
27	0xbec3b2c4	-0.38222325
28	0xbf1fb3c8	-0.623837
29	0xbee5c40a	-0.44876128
30	0xbf1ae478	-0.60504866
31	0xbf002cc9	-0.50068337
32	0xbef88024	-0.48535264
33	0xbeea4a1d	-0.4575967
34	0xbef204da	-0.47269326
35	0xbefb0fc2	-0.4903546
36	0xbef62d7f	-0.48081586
37	0xbefd48d0	-0.49469614
38	0xbf0216ad	-0.5081585
39	0xbefc99d2	-0.49336106
40	0xbf193a69	-0.5985475
41	0xbeff5d99	-0.49876097
42	0xbeee29ba	-0.4651621
43	0xbeeca3fa	-0.46218854
44	0xbf01f139	-0.507587
45	0xbef11436	-0.47085732
46	0xbeeeb4a2	-0.46622187
47	0xbec5e785	-0.38653198
48	0xbf0853e2	-0.53252995
49	0xbf2ca7fb	-0.6744382
50	0xbed5e362	-0.41775042
51	0xbf074b40	-0.528492
52	0xbef178cf	-0.47162482
53	0xbf05faf0	-0.52336025
54	0xbf1073ae	-0.56426513
55	0xbf04941c	-0.51788497
56	0xbf06f6e6	-0.5272049
57	0xbf02bebd	-0.51072294
58	0xbf09f5b6	-0.5389055
59	0xbeea5a03	-0.45771798
60	0xbf0c9d6b	-0.549277
61	0xbeed94b8	-0.46402526
62	0xbf06db89	-0.52678734
63	0xbec6c374	-0.38820994

bn4.running_mean f4 [64]
0	0xbf8cb848	-1.0993738
1	0xc00c4779	-2.1918623
2	0xbfae47c7	-1.3615655
3	0xbf396487	-0.7241902
4	0xbff281f7	-1.8945912
5	0xbc945487	-0.018106712
6	0xbf767d09	-0.9628454
7	0xbf446270	-0.76712704
8	0x3f612406	0.8794559
9	0x3e9a7f69	0.3017533
10	0xc0447768	-3.069788
11	0xbfe41060	-1.7817497
12	0x3f2254a2	0.6341039
13	0xbf485349	-0.78252083
14	0xbeccdb64	-0.40011132
15	0xbffb5d07	-1.9637765
16	0xbfc889d1	-1.5667058
17	0xbf5e42f0	-0.8682089
18	0x3f18f28d	0.59745103
19	0xc02b6f96	-2.6786857
20	0xbf3ed411	-0.7454234
21	0xc0100526	-2.2503142
22	0xc0b40ca0	-5.626541
23	0xbfcda499	-1.6065856
24	0xbf31927a	-0.6936413
25	0xbb2c5450	-0.0026295371
26	0xbfe18168	-1.7617617
27	0xc07e9da5	-3.9783719
28	0xbf5c19f7	-0.8597712
29	0x3d9cecc7	0.07662349
30	0x3f1c28ca	0.6099974
31	0xbfd01b51	-1.6258336
32	0xc007de47	-2.1229417
33	0xc0210266	-2.5157714
34	0xbfc5313d	-1.5405651
35	0xbdf0c0b1	-0.11755503
36	0xc05e75bd	-3.4759362
37	0x3f426f89	0.7595144
38	0xc014ee68	-2.3270512
39	0xbeded46b	-0.43521437
40	0xc01c5c24	-2.4431238
41	0xbfb54581	-1.4161836
42	0xbeb0ddea	-0.34544307
43	0xc0293109	-2.6436179
44	0xc09cf424	-4.9048023
45	0xbf37e965	-0.71840507
46	0xc0426a36	-3.0377326
47	0xbf73269c	-0.9498079
48	0xbfe0f2e3	-1.7574123
49	0xbf669969	-0.90077835
50	0xbf6f21a3	-0.934107
51	0xc02c0c7a	-2.6882615
52	0xbdb0d86c	-0.08635029
53	0xc04c4636	-3.1917853
54	0xbf9ded17	-1.2337979
55	0xc02f9e53	-2.7440383
56	0x3e1f81a9	0.15576805
57	0xbfa5f300	-1.2964783
58	0xc01fba41	-2.495743
59	0xbec05d44	-0.37571156
60	0xbf324d80	-0.69649506
61	0xbed07b01	-0.40718845
62	0xc01ab862	-2.4175038
63	0xc00e9f45	-2.228471

bn4.running_var f4 [64]
0	0x405750b1	3.3643
1	0x407a04fe	3.9065547
2	0x40367843	2.8510902
3	0x4084d4d5	4.1509805
4	0x405eb371	3.4797022
5	0x3ff4dfdc	1.9130816
6	0x4056bb36	3.3551764
7	0x409dbdca	4.9294176
8	0x402ee4e9	2.7327216
9	0x405530fe	3.3311152
10	0x404ff996	3.2496085
11	0x40775f82	3.8652043
12	0x40875b8b	4.2299247
13	0x408f246c	4.473196
14	0x40446229	3.0684912
15	0x40654412	3.5822797
16	0x40111370	2.2668114
17	0x3ff9cb42	1.9515154
18	0x408d2a34	4.4114017
19	0x404c81f0	3.1954308
20	0x3f908827	1.129155
21	0x406173cb	3.5226924
22	0x4084512d	4.134909
23	0x405b2d39	3.4246352
24	0x4062ad0e	3.5418124
25	0x407a75b1	3.9134333
26	0x407b9ce5	3.931451
27	0x402b7681	2.679108
28	0x3fde4090	1.7363453
29	0x404a1d4e	3.1580386
30	0x4033c42b	2.8088481
31	0x40703f71	3.7538722
32	0x40852478	4.1607018
33	0x408ea774	4.457941
34	0x401b3095	2.4248402
35	0x406084f3	3.5081146
36	0x407029b0	3.7525444
37	0x409fb998	4.9914055
38	0x4086a3ae	4.2074804
39	0x406535c0	3.5814056
40	0x4074dad8	3.8258572
41	0x4084e5b3	4.1530395
42	0x4096684a	4.7002306
43	0x40559ce0	3.3377
44	0x40604426	3.5041595
45	0x3f89be21	1.0761148
46	0x4081e8c5	4.0596642
47	0x40afa334	5.4886723
48	0x40a16dc7	5.0446506
49	0x402d8bb4	2.7116518
50	0x403639ab	2.8472698
51	0x404211ce	3.0323367
52	0x3fe30dfb	1.7738642
53	0x40519f56	3.27535
54	0x40629a26	3.5406585
55	0x40766cfe	3.8504024
56	0x406ef321	3.7335894
57	0x40702224	3.7520838
58	0x408cceee	4.40026
59	0x3fea9951	1.8328038
60	0x3f9c47b6	1.2209384
61	0x3ff4192b	1.9070181
62	0x403daf64	2.96383
63	0x40224be5	2.5358822
