5/task2/bi_classification/titanic_model.pth (torch, 225590 bytes, 32 tensors)

layer1.0.weight f4 [256, 28]
0	0x3d8cc4eb	0.068734966
1	0x3c5804de	0.013184754
2	0x3e0211bc	0.12702078
3	0xbde21d12	-0.11040701
4	0x3e2ce9b0	0.1688602
5	0xbcbe18c0	-0.023205161
6	0xbde01c45	-0.10942892
7	0x3db58c6c	0.08864674
8	0x3dedffb5	0.11621038
9	0xbdda000a	-0.10644539
10	0xbd13fe88	-0.03613141
11	0xbe0bcd07	-0.1365243
12	0x3c5933b7	0.013256959
13	0xbddccfcb	-0.10781821
14	0x3cc43fea	0.023956258
15	0xbd5cb2ab	-0.05388133
16	0xbe37e062	-0.17956689
17	0x3e26f6da	0.16305104
18	0x3d92b191	0.07162774
19	0xbe01ca8f	-0.12674926
20	0xbc0d8104	-0.008636717
21	0xbcee85a8	-0.029116467
22	0x3e0e6090	0.13904023
23	0xbe210d33	-0.15727691
24	0x3dbd367f	0.0923891
25	0xbdcf02ec	-0.10107979
26	0x3b8e142d	0.0043359012
27	0x3dcdb960	0.10045123
28	0xbe04fe42	-0.12987617
29	0x3cffeaa4	0.031239815
30	0xbe3b303c	-0.18280119
31	0x3e000b84	0.12504393
32	0xbdcae336	-0.09906618
33	0x3d1800f4	0.037110284
34	0xbe34e310	-0.17664742
35	0x3e14a470	0.14515853
36	0x3e4d4a43	0.2004786
37	0xbcf6328f	-0.030053405
38	0x3d401a42	0.04690004
39	0x3ccfc9ce	0.025364783
40	0x3d8a8547	0.06763702
41	0x3df5ade8	0.119960606
42	0xbe1dde8b	-0.15416925
43	0xbd13e241	-0.036104444
44	0xbd8c3513	-0.068460606
45	0x3e3d64f1	0.18495537
46	0x3e2adcfa	0.16685858
47	0xbe443029	-0.19158997
48	0xbe22e902	-0.15909198
49	0xbc432b37	-0.011912159
50	0xbd5fb7b3	-0.05461855
51	0xbe0a93b3	-0.13532905
52	0xbda7b443	-0.08188679
53	0xbe267811	-0.16256739
54	0x3c1d3a91	0.009596483
55	0x3e37e9bb	0.17960255
56	0x3db5be8b	0.08874234
57	0x3d732338	0.05935976
58	0x3d844076	0.064576074
59	0xbd0c1686	-0.034201168
60	0xbd90dd0c	-0.07073411
61	0xbe199cc8	-0.15001214
62	0xbd1e0fb6	-0.038589202
63	0x3d680793	0.05664785
64	0x3d01f116	0.031724058
65	0xbded5190	-0.115878224
66	0x3e07128e	0.13190672
67	0xbd5f8cfa	-0.054577805
68	0xbe21495a	-0.15750638
69	0xbe1aed1d	-0.15129514
70	0xbe10beaf	-0.1413524
71	0xbe3370bc	-0.17523474
72	0xbadd1632	-0.0016867577
73	0x3ca3619c	0.019944005
74	0xbdd59c7c	-0.10430238
75	0x3e16f811	0.14743067
76	0x3deb1273	0.11478128
77	0x3c9b9040	0.018989682
78	0xbdefb464	-0.11704329
79	0xbde7716f	-0.113009326
80	0xbe0e4c7d	-0.13896365
81	0xbdb586e8	-0.08863622
82	0xbdc88814	-0.0979158
83	0xbdde942d	-0.10868106
84	0xbe40ec2a	-0.1884009
85	0x3d2ed19e	0.042680375
86	0xbe242fcd	-0.1603386
87	0xbe175e51	-0.14782073
88	0xbe020a27	-0.12699185
89	0xbb6d11f3	-0.0036174029
90	0x3dd41cbb	0.103570424
91	0x3e09dfd8	0.13464296
92	0xbde6bc54	-0.112663895
93	0xbdd81cb2	-0.10552348
94	0x3dd3b1ea	0.10336669
95	0x3de002aa	0.10938008
96	0xbd967cf0	-0.07348049
97	0xbcb23b3e	-0.021756765
98	0xbe20ebfe	-0.15715024
99	0x3de6a7d7	0.11262482
100	0xbd6d1357	-0.057879772
101	0x3d7f8e30	0.06239146
102	0x3d08a01a	0.03335581
103	0x3d6b6c63	0.057476413
104	0xbdf92250	-0.12164748
105	0x3ddc11b8	0.10745567
106	0x3d34a8fc	0.04410647
107	0xbe1b1e1c	-0.15148205
108	0x3d1a006f	0.03759807
109	0x3dae88d9	0.08522195
110	0x3c93d48a	0.018045682
111	0x3dff915b	0.12478896
112	0xbd5beab1	-0.053690616
113	0x3cb88352	0.022523556
114	0xbe021f75	-0.12707312
115	0x3d226a61	0.039652232
116	0xbcaeca6b	-0.021336755
117	0x3d325d5d	0.04354607
118	0xbd899004	-0.06716922
119	0xbc1deaab	-0.009638469
120	0x3d222977	0.039590325
121	0xbe42fd98	-0.19042051
122	0x3cbbd385	0.022928009
123	0xbe4be99a	-0.1991333
124	0xbdd78b61	-0.10524631
125	0x3e201938	0.1563462
126	0xbd31d2c3	-0.04341389
127	0x3df5ac47	0.1199575
128	0x3d158048	0.03649929
129	0x3d446c1a	0.047954656
130	0xbdb69205	-0.0891457
131	0x3daf70e8	0.08566457
132	0xbdc79522	-0.09745242
133	0xbd9a4c0b	-0.07534035
134	0xbe09d0ca	-0.13458553
135	0xbe2b601a	-0.16735879
136	0x389cce59	7.477095e-05
137	0xbd6f6cdc	-0.058453426
138	0x3e19c6e3	0.15017276
139	0xbdfcd954	-0.123461396
140	0xbe32ce91	-0.17461611
141	0xbe2f86e9	-0.17141308
142	0x3e3801a7	0.1796938
143	0xbdc90035	-0.098144926
144	0x3ddc92c9	0.107701845
145	0xbdd67060	-0.104706526
146	0xbd6e8d84	-0.05824043
147	0xbd14f0e0	-0.03636253
148	0x3e366178	0.17810619
149	0x3c0abec5	0.008468335
150	0xbdeecae9	-0.11659796
151	0x3be10e06	0.006868127
152	0x3d70510f	0.058671053
153	0x3c115728	0.008870877
154	0x3d5bb15d	0.053635944
155	0x3db70bf3	0.08937826
156	0xbe3a9fc7	-0.18225013
157	0xbd079828	-0.033104092
158	0xbd40c6fb	-0.047064763
159	0xbd8bb2b0	-0.06821191
160	0x3d43cb36	0.04780122
161	0x3e10cbb1	0.14140202
162	0xbe2ba04f	-0.16760372
163	0xbcb69a35	-0.022290329
164	0xbdb9e269	-0.090763874
165	0x3d0d3481	0.0344739
166	0xbe235a25	-0.15952356
167	0x3e2439dd	0.16037698
168	0xbe33e810	-0.17568994
169	0xbd932fcc	-0.07186851
170	0xbe24447b	-0.16041748
171	0x3d842f52	0.06454338
172	0xbd4a3065	-0.04936256
173	0xbe15043b	-0.14552395
174	0x3d950c22	0.07277705
175	0x3e246739	0.16055001
176	0xbddf0c46	-0.10891013
177	0xbe118b91	-0.14213397
178	0x3db66c30	0.08907354
179	0x3d6c3847	0.057670858
180	0x3db812eb	0.08987983
181	0x3daf8266	0.085697934
182	0x3d7464c1	0.0596664
183	0xbd0c895d	-0.034310687
184	0x3ca03083	0.019554382
185	0xbe196418	-0.14979589
186	0xbd372e2a	-0.04472176
187	0x3e1d00f6	0.15332398
188	0x3e002abf	0.12516306
189	0xbd941658	-0.07230824
190	0xbe21e343	-0.1580935
191	0x3dbb12bd	0.091344334
192	0x3c2dae3a	0.010600621
193	0x3da1b17a	0.07895179
194	0xbca24812	-0.019809756
195	0xbd644e31	-0.05573863
196	0xbc621f4c	-0.013801407
197	0x3df8a0ee	0.1214007
198	0xbc31eb0f	-0.010859265
199	0xbe0b7085	-0.13617142
200	0x3d4f402a	0.0505983
201	0xbe3f5ffc	-0.18688959
202	0xbe0b2250	-0.13587308
203	0x3e43a62d	0.1910636
204	0x3e02c251	0.12769438
205	0xba490a5e	-0.00076690863
206	0x3aa02615	0.001221838
207	0xbd52a45f	-0.051426288
208	0xbe17dd95	-0.1483062
209	0xbdcf41c0	-0.10119963
210	0xbdcfbfaf	-0.101439826
211	0xbe3bd588	-0.18343174
212	0x3dbf34de	0.093362555
213	0x3d8de37a	0.06928153
214	0x3e201eca	0.15636745
215	0xbe38b56a	-0.18037954
216	0xbdd2b358	-0.10288113
217	0x3e10ba0f	0.14133476
218	0x3e0b2649	0.13588823
219	0xbd8ef477	-0.06980222
220	0x3d4341ca	0.047670163
221	0x3e2147ce	0.15750048
222	0xbc9be983	-0.019032246
223	0x3d8eded4	0.06976095
224	0x3d990e98	0.07473487
225	0xbd333aa3	-0.043757092
226	0xbe1932b4	-0.14960748
227	0x3da8199d	0.0820801
228	0xbdec3de7	-0.115352444
229	0xbde6e974	-0.112749964
230	0x3deba398	0.115058124
231	0xbde28648	-0.11060768
232	0xbd25ab82	-0.040446766
233	0x3da3ecca	0.08004148
234	0x3dc6036f	0.09668624
235	0x3e10920f	0.14118217
236	0x3df8aaab	0.12141927
237	0xbcd2ea1e	-0.025746401
238	0x3e2a7de6	0.16649589
239	0x3c6131be	0.01374477
240	0xbe08a042	-0.13342384
241	0xbaa613ad	-0.0012670659
242	0xbd892fad	-0.066985466
243	0x3dbc7308	0.09201628
244	0x3e3fb75a	0.18722287
245	0xbc776a82	-0.015101077
246	0x3d2987cb	0.041389268
247	0xbe2c2a03	-0.16812901
248	0x3db1fbd7	0.08690613
249	0x3e3aa176	0.18225655
250	0x3db11de1	0.08648277
251	0xbd310a91	-0.043222968
252	0xbd6815d8	-0.056661457
253	0xbe428096	-0.18994364
254	0x3d677b33	0.056513976
255	0x3dde1dfa	0.10845561

layer1.0.bias f4 [256]
0	0x3e1e0e65	0.15435179
1	0x3e32fb29	0.17478622
2	0xbda36e34	-0.07980004
3	0x3e3a2969	0.18179859
4	0xbe118e0a	-0.1421434
5	0x3de5a981	0.11213971
6	0xbdd55704	-0.104169875
7	0xbc37b5ee	-0.011212809
8	0xbd565fc8	-0.052337438
9	0x3b88ab14	0.0041707847
10	0xbd367d07	-0.04455283
11	0xbe2e7357	-0.17036186
12	0x3e174dd1	0.14775778
13	0xbcfd0790	-0.030887395
14	0x3d9ed715	0.077558674
15	0x3e2a4773	0.16628818
16	0x3e3999ee	0.18125126
17	0x3db0c6f2	0.08631696
18	0xbe1182c0	-0.14210033
19	0xbe1657af	-0.14681886
20	0x3ddff210	0.10934842
21	0x3de55c6e	0.1119927
22	0x3c95dbd3	0.018293297
23	0xbc8826e4	-0.016620107
24	0x3e18fe28	0.14940703
25	0xbd98059a	-0.074229434
26	0x3e004667	0.12526856
27	0x3dadc9e4	0.08485773
28	0x3b1df881	0.0024104419
29	0xbd7f7183	-0.062364113
30	0x39b432b4	0.00034370052
31	0xbe27f83e	-0.1640329
32	0x3dab3779	0.0836019
33	0xbe0e8dd2	-0.13921288
34	0xbe312b62	-0.17301705
35	0x3d2af754	0.041739777
36	0xbd3bb52d	-0.04582708
37	0x3df9faf5	0.122060694
38	0x3cb2e4c2	0.021837596
39	0x3d5179c9	0.051141534
40	0xbcb8c942	-0.022556905
41	0xbdfb5849	-0.122726984
42	0x3e1d9023	0.15387015
43	0x3df6b953	0.120470665
44	0xbd28a7fc	-0.041175827
45	0xbdcf5e57	-0.10125416
46	0xbdc2a6fd	-0.09504507
47	0xbdc8ea2e	-0.09810291
48	0x3e03a229	0.12854828
49	0x3d14846f	0.03625911
50	0xbd14da9c	-0.036341295
51	0x3dc44ef3	0.09585371
52	0xbd447c38	-0.047970027
53	0xbadb0f55	-0.0016712943
54	0xbcafbc20	-0.02145201
55	0xbd8bd6ca	-0.06828077
56	0x3e03a17b	0.12854569
57	0xbda34b1a	-0.07973309
58	0x3d50926b	0.050920885
59	0x3cecc00e	0.028900173
60	0xbe23fad7	-0.16013657
61	0x3e342155	0.1759084
62	0xbe1e6efe	-0.15472028
63	0xbc9e3103	-0.01931048
64	0x3cb08a7e	0.021550413
65	0xbe104fc5	-0.1409293
66	0xbdc3315c	-0.09530899
67	0x3e289b84	0.16465575
68	0x3c8ccfe7	0.01718898
69	0x3dacf650	0.08445418
70	0xbceded1d	-0.029043728
71	0xbdec7d1b	-0.115472995
72	0xbe3c977a	-0.18417159
73	0xbd2c216c	-0.04202406
74	0x3d62d548	0.055379182
75	0x3c9988ed	0.01874205
76	0xbdcd6df1	-0.10030735
77	0xbd876e33	-0.06612816
78	0xbd49ed30	-0.049298465
79	0xbe2bd143	-0.16779046
80	0x3dc05182	0.093905464
81	0x3d82a839	0.06379742
82	0x3e0ec705	0.13943107
83	0x3df9db2e	0.12200008
84	0xbdd9fbb5	-0.106437124
85	0xbe38bfe0	-0.18041945
86	0xbe0c10ee	-0.13678333
87	0x3e08df93	0.13366537
88	0xbd557f7c	-0.05212353
89	0x3de5f373	0.11228075
90	0xbe0d2ec0	-0.13787365
91	0xbe0befb9	-0.13665666
92	0xbd953e4c	-0.07287273
93	0xbc6a56d4	-0.014302928
94	0xbc5fb7e2	-0.013654681
95	0xbe333469	-0.17500462
96	0x3de307d3	0.11085477
97	0x3cd30318	0.025758311
98	0xbd813ed8	-0.063108146
99	0x3dbb0dc3	0.09133484
100	0x3def594b	0.11686953
101	0x3dbce29f	0.09222912
102	0x3e238cfb	0.15971749
103	0x3dc3eb26	0.095663354
104	0xbcc355c4	-0.023844607
105	0xbe24b820	-0.16085863
106	0x3c15c50f	0.009141221
107	0xbce7e2e6	-0.028306436
108	0xbdf80379	-0.12110037
109	0x3d858e60	0.065212965
110	0x3dbdfa59	0.09276266
111	0x3dd7b0af	0.105317466
112	0xbe10d16e	-0.14142391
113	0x3db0f873	0.08641138
114	0xbe31f51e	-0.17378661
115	0x3e390a76	0.18070397
116	0x3d2c55f5	0.042074163
117	0xbe16db32	-0.14732054
118	0x3db6555d	0.089030005
119	0x3dd9afa9	0.10629208
120	0x3e3dc280	0.18531227
121	0xbddc6f72	-0.10763444
122	0xbe40eda8	-0.18840659
123	0x3e1ff646	0.1562129
124	0xbc7a7b30	-0.015288159
125	0x3e0f400a	0.13989273
126	0x3dc60048	0.096680224
127	0xbdbb7ae8	-0.09154302
128	0xbd57595f	-0.052575465
129	0xbe0fd17f	-0.1404476
130	0xbda5bb55	-0.080923714
131	0xbe34f1aa	-0.17670313
132	0x3d0dad45	0.03458907
133	0x3cf81490	0.030283242
134	0x3d44fc71	0.04809231
135	0xbe05fc5b	-0.13084547
136	0xbdaf23df	-0.08551764
137	0xbdb36bc3	-0.08760788
138	0xbdcb5de2	-0.09930016
139	0x3c7691dd	0.015049425
140	0x3de76423	0.112983964
141	0xbcf8e2f4	-0.030381657
142	0xbde4a074	-0.111634165
143	0x3e03edd0	0.12883687
144	0x3de492e1	0.111608274
145	0x3e04c4f4	0.12965757
146	0x3dbbe7d7	0.09175079
147	0xbd2a551a	-0.041585065
148	0x3e057b84	0.13035399
149	0x3deffa0b	0.11717614
150	0x3dc52482	0.09626104
151	0x3c1d4e78	0.009601228
152	0xbdd2b356	-0.10288112
153	0xbe2734f5	-0.16328795
154	0xbe37d5ec	-0.17952698
155	0x3e30728a	0.17231193
156	0xbe1c00ec	-0.15234727
157	0x3d83bd9f	0.06432652
158	0x3d7277c2	0.05919624
159	0x3e383e69	0.17992558
160	0x3d8cefe0	0.0688169
161	0xbd8c8b24	-0.068624765
162	0x3d98420a	0.07434471
163	0xbd876aca	-0.06612165
164	0xbd6a596a	-0.05721418
165	0xbd9eac2d	-0.07747684
166	0x3d5c6bf4	0.05381389
167	0x3c2f9c87	0.010718471
168	0x3e196e42	0.14983466
169	0xbdd19d95	-0.102351345
170	0xbdfec427	-0.12439757
171	0xbcd492c6	-0.025948893
172	0xbdef7927	-0.1169303
173	0x3d4542bf	0.048159357
174	0xbd7e2a48	-0.06205204
175	0xbcf46d1f	-0.02983719
176	0xbe246cb3	-0.1605709
177	0x3b8e90a3	0.004350738
178	0x3df58c05	0.11989597
179	0xbcfbd1dc	-0.030739717
180	0x3e06e5f0	0.13173652
181	0x3d9cf802	0.07664491
182	0x3cb31b33	0.021863556
183	0xbcbfaae2	-0.023396913
184	0xbdad8859	-0.08473272
185	0xbd41f01b	-0.047348123
186	0x3e1cfdfa	0.1533126
187	0x3d9e3769	0.077254124
188	0xbe3faa6d	-0.18717356
189	0xbe2d0dca	-0.16899791
190	0xbded2724	-0.11579731
191	0xbdcbe9ec	-0.099567264
192	0x3cced8ad	0.025249803
193	0x3d83b8fb	0.064317666
194	0x3dde2937	0.10847705
195	0x3daf4725	0.085584916
196	0xbdba5d87	-0.0909987
197	0x3ca47dde	0.02007955
198	0xbe2ac894	-0.16678077
199	0x3dfab4a0	0.12241483
200	0xbcdbb810	-0.026821166
201	0xbe0253eb	-0.12727325
202	0x3adf4475	0.0017033952
203	0x3e0ab7e9	0.13546719
204	0x3d03e431	0.032200042
205	0xbcd0360b	-0.025416395
206	0xbe0e1653	-0.13875704
207	0xbe2f1059	-0.1709608
208	0x3d614e24	0.05500616
209	0x3cca2ee8	0.02468057
210	0x3e3cc025	0.18432672
211	0x3de5bc8a	0.112176016
212	0xbcf49c58	-0.029859707
213	0xbd823567	-0.06357842
214	0x3ca15e55	0.019698301
215	0xbc00c303	-0.007858994
216	0x3de68e31	0.112575896
217	0xbc81815a	-0.01580875
218	0xbe258768	-0.16164935
219	0x3e3666c9	0.17812647
220	0xbd916d03	-0.071008705
221	0x3e26ddff	0.16295622
222	0xbdb92ec9	-0.09042127
223	0x3e3cae98	0.18425977
224	0x3e33f2bc	0.17573065
225	0x3db1e049	0.08685357
226	0x3e1234a2	0.1427789
227	0x3c2ce31d	0.010552195
228	0xbe024f15	-0.1272548
229	0x3d2b9077	0.04188582
230	0x3e1dca32	0.15409163
231	0xbdb3bf1d	-0.08776686
232	0xbdfa45e4	-0.12220362
233	0xbd9676f1	-0.07346905
234	0x3cc8c9f7	0.024510367
235	0x3dd62fa5	0.10458306
236	0xbddea9ec	-0.10872254
237	0x3d5d5a02	0.054040916
238	0x3cf0f802	0.029415134
239	0x3c26af82	0.01017368
240	0xbe0120cf	-0.12610172
241	0xbc516368	-0.012780048
242	0xbdb4c80a	-0.08827217
243	0x3d97df4f	0.074156396
244	0xbd125b4f	-0.03573161
245	0x3d8ad7ff	0.06779479
246	0x3c2765c1	0.010217131
247	0xbd1d9c02	-0.03847886
248	0xbce51f1b	-0.027968934
249	0xbdc5eb02	-0.09663965
250	0xbd57b0ce	-0.05265885
251	0xbdfb730e	-0.12277804
252	0xbd2a50c2	-0.041580923
253	0x3e39f548	0.18159974
254	0xbda2f1d9	-0.07956285
255	0xbe25e72d	-0.16201468

layer1.1.weight f4 [256]
0	0x3f806ac3	1.0032581
1	0x3f804d5b	1.0023607
2	0x3f7e8952	0.99428284
3	0x3f7cde2c	0.9877651
4	0x3f8028ef	1.0012492
5	0x3f7f01d3	0.9961216
6	0x3f7f00ba	0.99610484
7	0x3f7ff7e7	0.99987644
8	0x3f81ad46	1.0131004
9	0x3f7d4d15	0.9894574
10	0x3f7ec4ef	0.99519247
11	0x3f80f14a	1.0073636
12	0x3f8066ba	1.003135
13	0x3f7e82eb	0.99418515
14	0x3f7f2818	0.99670553
15	0x3f7f515e	0.9973353
16	0x3f7efe73	0.9960701
17	0x3f804cee	1.0023477
18	0x3f7e8d47	0.9943432
19	0x3f7f6d2a	0.99775946
20	0x3f80fc83	1.007706
21	0x3f7f393f	0.99696726
22	0x3f7f45e1	0.99716
23	0x3f7f2042	0.99658597
24	0x3f7e4d3b	0.99336594
25	0x3f7ebb55	0.99504596
26	0x3f80a0a5	1.0049025
27	0x3f80ef27	1.0072984
28	0x3f806ccb	1.0033201
29	0x3f8008e3	1.0002712
30	0x3f7f2aa7	0.9967446
31	0x3f7f059a	0.9961792
32	0x3f7f0ebb	0.9963185
33	0x3f8261dd	1.0186116
34	0x3f805554	1.002604
35	0x3f7f9cb1	0.9984847
36	0x3f7e347c	0.99298835
37	0x3f8053a3	1.0025524
38	0x3f7ee8df	0.99574083
39	0x3f8009bc	1.0002971
40	0x3f7f87d7	0.9981665
41	0x3f7ff8f2	0.99989235
42	0x3f7e56ca	0.9935118
43	0x3f7fc4a7	0.9990944
44	0x3f807fae	1.0038965
45	0x3f7e816e	0.99416244
46	0x3f7f7456	0.9978689
47	0x3f7ed5fd	0.9954527
48	0x3f80c155	1.0059
49	0x3f807a81	1.0037385
50	0x3f802ed1	1.0014287
51	0x3f7ff19c	0.9997804
52	0x3f80159e	1.0006597
53	0x3f7e0fb9	0.9924274
54	0x3f7fa91c	0.99867415
55	0x3f7e1407	0.9924931
56	0x3f7e6630	0.99374676
57	0x3f7e7677	0.99399513
58	0x3f7e5ff6	0.99365175
59	0x3f80765e	1.0036123
60	0x3f7ecc79	0.9953075
61	0x3f806a1d	1.0032383
62	0x3f80a806	1.0051277
63	0x3f7e251d	0.9927538
64	0x3f80e26e	1.0069101
65	0x3f812618	1.008975
66	0x3f7feb57	0.99968475
67	0x3f7ee72d	0.99571496
68	0x3f7f3dea	0.9970385
69	0x3f804d22	1.0023539
70	0x3f7e4865	0.99329215
71	0x3f7e9c60	0.9945736
72	0x3f7e6fdc	0.99389434
73	0x3f7f3e14	0.997041
74	0x3f818b19	1.0120574
75	0x3f7fb68a	0.9988791
76	0x3f7da919	0.9908615
77	0x3f80f25a	1.007396
78	0x3f808ef0	1.0043621
79	0x3f7d273e	0.98888004
80	0x3f7e5131	0.9934264
81	0x3f7ed1d9	0.9953895
82	0x3f806462	1.0030634
83	0x3f7ff6b8	0.9998584
84	0x3f7eb0ff	0.99488825
85	0x3f80ca92	1.006182
86	0x3f7f93d8	0.99834967
87	0x3f7f9e94	0.99851346
88	0x3f8022f6	1.0010669
89	0x3f7f3ad6	0.9969915
90	0x3f7e3085	0.99292785
91	0x3f7ede23	0.99557704
92	0x3f81a11c	1.0127292
93	0x3f820de3	1.0160488
94	0x3f7fc71a	0.9991318
95	0x3f7ffc11	0.99994
96	0x3f7f1527	0.9964165
97	0x3f7e003d	0.99219114
98	0x3f7e857d	0.99422437
99	0x3f80c9ca	1.0061581
100	0x3f7f2dd0	0.9967928
101	0x3f7debbe	0.9918784
102	0x3f7f02a0	0.9961338
103	0x3f7eb62c	0.9949672
104	0x3f813b2a	1.009618
105	0x3f7e9b98	0.9945617
106	0x3f7f0998	0.99624014
107	0x3f809683	1.0045933
108	0x3f7f0d82	0.99629986
109	0x3f80451a	1.0021088
110	0x3f80ca37	1.0061711
111	0x3f7c6267	0.9858765
112	0x3f80eddb	1.0072588
113	0x3f8142f0	1.0098553
114	0x3f7ece9d	0.99534017
115	0x3f7eb061	0.9948788
116	0x3f7df8f7	0.99208015
117	0x3f81e176	1.014693
118	0x3f812c57	1.0091656
119	0x3f80175f	1.0007132
120	0x3f7f229a	0.9966217
121	0x3f80bd6a	1.0057805
122	0x3f805f28	1.0029039
123	0x3f8017d2	1.0007269
124	0x3f80257f	1.0011443
125	0x3f7e2b56	0.99284875
126	0x3f8043a0	1.0020638
127	0x3f7f3e88	0.9970479
128	0x3f7e6278	0.99369
129	0x3f7ea6f1	0.9947348
130	0x3f7e37d3	0.9930393
131	0x3f7f4a99	0.997232
132	0x3f7e249c	0.9927461
133	0x3f7f7852	0.9979297
134	0x3f7fde8a	0.9994894
135	0x3f7aea52	0.98013794
136	0x3f802ace	1.0013063
137	0x3f7f69d5	0.9977086
138	0x3f808695	1.0041071
139	0x3f7ea716	0.994737
140	0x3f80630b	1.0030226
141	0x3f7a4461	0.9776059
142	0x3f7f1892	0.99646866
143	0x3f8016cb	1.0006956
144	0x3f800143	1.0000385
145	0x3f7c5a22	0.9857503
146	0x3f807cec	1.0038123
147	0x3f7f6593	0.99764365
148	0x3f803ce6	1.0018585
149	0x3f7ecdef	0.9953298
150	0x3f7f9309	0.9983373
151	0x3f7e2ce9	0.9928728
152	0x3f807aab	1.0037435
153	0x3f802573	1.0011429
154	0x3f7f5231	0.9973479
155	0x3f7f2e87	0.9968037
156	0x3f801564	1.0006528
157	0x3f7edfc1	0.9956017
158	0x3f7f5d4d	0.9975174
159	0x3f7da8ef	0.990859
160	0x3f80eb6b	1.0071844
161	0x3f7cef85	0.9880298
162	0x3f802697	1.0011777
163	0x3f80cf08	1.0063181
164	0x3f7efe10	0.9960642
165	0x3f7f17c2	0.99645627
166	0x3f7dd23d	0.99148923
167	0x3f7fd3df	0.99932665
168	0x3f805e03	1.002869
169	0x3f7eecf1	0.99580294
170	0x3f7e6f84	0.9938891
171	0x3f7f290c	0.9967201
172	0x3f7ffd6b	0.9999606
173	0x3f8044f3	1.0021042
174	0x3f7ea090	0.9946375
175	0x3f80388e	1.0017259
176	0x3f8012a0	1.0005684
177	0x3f80418d	1.0020005
178	0x3f800ad7	1.0003308
179	0x3f8159c4	1.0105519
180	0x3f800945	1.0002829
181	0x3f809d48	1.0047998
182	0x3f804fe2	1.0024378
183	0x3f7fb022	0.9987813
184	0x3f7ef899	0.9959808
185	0x3f7fa6d6	0.99863946
186	0x3f800e40	1.0004349
187	0x3f7cc8cd	0.987439
188	0x3f80037b	1.0001062
189	0x3f7dd9fe	0.99160755
190	0x3f814079	1.00978
191	0x3f804bd7	1.0023144
192	0x3f802acd	1.0013062
193	0x3f7f06d1	0.99619776
194	0x3f802367	1.0010804
195	0x3f82b407	1.021119
196	0x3f800967	1.0002869
197	0x3f80963e	1.004585
198	0x3f7e2eca	0.99290144
199	0x3f7fa91a	0.99867404
200	0x3f7d6b6e	0.9899205
201	0x3f7e203e	0.9926795
202	0x3f7f39c6	0.9969753
203	0x3f81b37e	1.0132902
204	0x3f7dffe6	0.99218595
205	0x3f811ccd	1.0086914
206	0x3f7da86c	0.99085116
207	0x3f7ed4f5	0.99543697
208	0x3f7e60da	0.99366534
209	0x3f7cd175	0.98757106
210	0x3f7fc3c3	0.99908084
211	0x3f7ea686	0.99472845
212	0x3f7cc20c	0.9873359
213	0x3f80a658	1.0050764
214	0x3f7dcbf0	0.9913931
215	0x3f800cec	1.0003943
216	0x3f80a56f	1.0050486
217	0x3f806a0e	1.0032365
218	0x3f7f21fa	0.9966122
219	0x3f7e1f23	0.9926626
220	0x3f7d902e	0.99048126
221	0x3f7f427c	0.9971082
222	0x3f80b3d6	1.0054882
223	0x3f7d82e0	0.99027824
224	0x3f80549a	1.0025818
225	0x3f7de635	0.99179393
226	0x3f7de305	0.9917453
227	0x3f7d7186	0.9900135
228	0x3f7eaba5	0.9948066
229	0x3f7ef1b4	0.9958756
230	0x3f7e642a	0.9937159
231	0x3f7eff9d	0.99608785
232	0x3f7f2250	0.9966173
233	0x3f7f502b	0.997317
234	0x3f801a0e	1.0007951
235	0x3f7fddba	0.999477
236	0x3f80271a	1.0011933
237	0x3f7eb9bf	0.99502176
238	0x3f80cdb3	1.0062774
239	0x3f8041cf	1.0020083
240	0x3f80219b	1.0010256
241	0x3f7f51c1	0.9973412
242	0x3f7f0594	0.99617887
243	0x3f803028	1.0014696
244	0x3f7fecc5	0.99970657
245	0x3f7fcc14	0.99920774
246	0x3f7cbda7	0.98726887
247	0x3f7c9bc6	0.9867519
248	0x3f7f7e0a	0.99801695
249	0x3f80694c	1.0032134
250	0x3f7eedf5	0.99581844
251	0x3f7fd9c0	0.99941635
252	0x3f82da8b	1.0222944
253	0x3f7ed628	0.99545527
254	0x3f7de97e	0.99184406
255	0x3f7e43ca	0.9932219

layer1.1.bias f4 [256]
0	0x3c0dde5c	0.008658972
1	0x3b460726	0.0030216663
2	0xbc0490d3	-0.008091169
3	0xbc13455a	-0.008988703
4	0x3bb0234c	0.0053753015
5	0x3b809f61	0.0039252494
6	0x3b61aab9	0.0034434034
7	0xb995b80f	-0.0002855663
8	0x3ac5ad63	0.001508158
9	0xbc20989e	-0.009802012
10	0xbbc60025	-0.0060424977
11	0xbaa2ea79	-0.0012429497
12	0x3b527c99	0.0032117723
13	0xbbf6f71a	-0.007536781
14	0xbbb833b2	-0.005621397
15	0xbb04a128	-0.0020237658
16	0x3b058595	0.002037381
17	0x3bd3c003	0.0064620986
18	0xbc0c6ff3	-0.008571613
19	0xbaf3a9d9	-0.0018590047
20	0xbadf1505	-0.0017019814
21	0xbbf8b08d	-0.007589406
22	0x3bc7eb2a	0.006101032
23	0xbb18d93a	-0.0023322836
24	0xbade74f7	-0.0016972114
25	0xbb746081	-0.0037288966
26	0x3bbd5deb	0.005779018
27	0x3baf6ee6	0.0053537963
28	0x3b07e108	0.0020733494
29	0x3bd807e7	0.006592739
30	0xbbf937e4	-0.0076055396
31	0xbb928652	-0.0044715786
32	0xbb0ebaf3	-0.002177891
33	0x3a89ec7b	0.0010522747
34	0x3b975616	0.0046184165
35	0x3b731430	0.003709089
36	0xba2153f8	-0.0006154175
37	0xbb2df2c2	-0.00265424
38	0xbbb61d7f	-0.0055577154
39	0xbba69702	-0.0050839195
40	0xb9a6e739	-0.00031834262
41	0x3b82a015	0.0039863684
42	0xbc6e569d	-0.014547017
43	0xbbf0281f	-0.0073290016
44	0x3c2d52f7	0.010578862
45	0xbc041793	-0.008062261
46	0xbaed73b0	-0.0018116143
47	0xbb064a3c	-0.0020491024
48	0xbb47be1c	-0.0030478304
49	0x3b3e7614	0.002906208
50	0xb9bb6473	-0.0003574226
51	0x3b9ff5d7	0.0048816013
52	0x3be9fba0	0.0071405917
53	0xbc0970f6	-0.008388748
54	0xbb815cdb	-0.003947837
55	0xbbe27485	-0.006910863
56	0xbc055ce4	-0.008139823
57	0xbc102792	-0.008798497
58	0xbc0021d0	-0.0078205615
59	0x3acaf975	0.0015485721
60	0xba646155	-0.00087120134
61	0x3ab04ec0	0.0013451204
62	0x3a9972aa	0.0011707146
63	0xbb47b72b	-0.0030474167
64	0x3b806d2f	0.0039192657
65	0x3bc69c06	0.00606108
66	0x3b265013	0.0025377318
67	0xbb8247bc	-0.0039758366
68	0xbaad94c3	-0.0013243187
69	0xbae869b7	-0.0017731701
70	0xbb2ffd96	-0.002685403
71	0xbbb01282	-0.0053733
72	0xbba02ed6	-0.004888396
73	0x3b8a4245	0.0042193257
74	0x3b6c085a	0.003601572
75	0x3aa57367	0.0012622894
76	0xbbb88221	-0.005630747
77	0x3bef00fb	0.007293818
78	0x3aaaa949	0.0013020422
79	0xbab0ee31	-0.0013498721
80	0xbb6be3a1	-0.0035993832
81	0x3b795981	0.0038047733
82	0x3a9c2c92	0.0011915138
83	0xbc135045	-0.008991306
84	0xbb6ea4ad	-0.0036414072
85	0x3bbfd0f5	0.005853767
86	0x3b1535c7	0.002276765
87	0x3a8fd320	0.0010972954
88	0xbbc23ae1	-0.005927429
89	0xb9d14e90	-0.0003992212
90	0xbc085804	-0.008321766
91	0xbb496096	-0.0030727736
92	0x3b805ba6	0.0039171753
93	0x3c4188c2	0.011812391
94	0xbad2e72e	-0.0016090625
95	0xbb2daa55	-0.002649923
96	0xbad0a17c	-0.0015917267
97	0xbbcd4efe	-0.00626552
98	0x3b6a98d5	0.0035796661
99	0x3c08e903	0.008356336
100	0xbb7adb95	-0.0038277854
101	0xbc279dd2	-0.010230498
102	0xbbc3a56a	-0.0059706466
103	0xbbbfc597	-0.005852412
104	0x3be81d13	0.007083544
105	0xbb8fabb5	-0.0043844827
106	0x39ccf616	0.0003909326
107	0xbb1de03a	-0.0024089948
108	0xbc055d1c	-0.008139875
109	0x3b833729	0.0040043783
110	0xba67504a	-0.00088239147
111	0xbc2bcc37	-0.0104857
112	0xba578e1f	-0.0008222777
113	0x3ab19d7b	0.0013550961
114	0xba3d662a	-0.00072250015
115	0xbbf64f0b	-0.007516747
116	0xbc243747	-0.010022945
117	0x3c19a41c	0.009377506
118	0x3b7847f9	0.0037884696
119	0x3ba63f12	0.0050734365
120	0xbbb8f038	-0.0056438707
121	0xba3a4535	-0.00071056496
122	0xbc11e56c	-0.008904796
123	0xbaf12799	-0.0018398642
124	0x3b23986e	0.0024962681
125	0xbba765e9	-0.005108584
126	0xbb842406	-0.0040326146
127	0xbb642f85	-0.0034818363
128	0xbbd0b703	-0.006369473
129	0xbb2f2ace	-0.0026728394
130	0xbc03f065	-0.00805292
131	0xbb2389bc	-0.0024953922
132	0xbab0170c	-0.0013434603
133	0xbb0e4e3c	-0.0021714112
134	0x39312401	0.00016893448
135	0xbc48247a	-0.012215728
136	0x3a6e20b0	0.00090838503
137	0x3b5923a3	0.0033132813
138	0x3ba8359d	0.0051333443
139	0xbb61aa8f	-0.0034433936
140	0x3bfbd18a	0.007684891
141	0xbc6cdd23	-0.01445702
142	0xba6ba2d1	-0.00089888
143	0xbbc6d5e1	-0.006067977
144	0xb9a4662e	-0.00031356647
145	0xbb1054a7	-0.0022023113
146	0x3c3bd196	0.011463543
147	0xbafe095e	-0.0019381454
148	0xbb9025c7	-0.0043990347
149	0x3a1bcb91	0.00059431145
150	0xbbc6b045	-0.0060634934
151	0xbb61285f	-0.0034356338
152	0x3a2c8e24	0.000658246
153	0xbbebbc1c	-0.0071940552
154	0x39ba95cb	0.0003558829
155	0xbb8bde92	-0.004268476
156	0x3a48a735	0.00076543103
157	0xbb23947a	-0.0024960325
158	0xb9fa9b0b	-0.00047799232
159	0xbb19ff94	-0.0023498284
160	0x3b3d1570	0.002885189
161	0xbc3a5ac3	-0.011374178
162	0x3a809860	0.0009811036
163	0x3b352321	0.0027639347
164	0x3a980533	0.0011598229
165	0x39ad3d55	0.00033042827
166	0xbb5eaa51	-0.0033976028
167	0x3b1035e8	0.0022004787
168	0xbad3b5e3	-0.0016152229
169	0x38fa0f5e	0.00011923791
170	0x3970d94b	0.00022969132
171	0x3b04c839	0.0020260944
172	0xbb17ad82	-0.002314419
173	0x3c0673a5	0.008206283
174	0x3a7dec0f	0.00096863596
175	0x3b7234a6	0.003695765
176	0x3b4909e1	0.0030676054
177	0x3adfef24	0.0017084819
178	0x3af146ed	0.0018407978
179	0x3c0e1a61	0.008673281
180	0xbb0dee92	-0.0021657092
181	0x3b09b0f5	0.0021010016
182	0x3b6efc2e	0.0036466229
183	0x3b26f8ba	0.0025477842
184	0xbba54782	-0.005043925
185	0xbae0f1aa	-0.0017161865
186	0xbbdac298	-0.0066760294
187	0xbc2386e0	-0.009980887
188	0x3ae39481	0.0017362983
189	0xbc4fe9f6	-0.012690058
190	0xbb27e58d	-0.0025619
191	0x3b1addc4	0.0023630718
192	0x3b973924	0.004614966
193	0xbafa23fe	-0.0019084213
194	0x3a2b43d5	0.000653324
195	0x3bfe13b5	0.007753814
196	0xbb00a45d	-0.0019629218
197	0xbb044fd4	-0.0020189183
198	0xbb8b82cf	-0.004257537
199	0xbb4301a6	-0.0029755621
200	0xbb240aa2	-0.0025030752
201	0xbb2886a9	-0.002571503
202	0xbb17f210	-0.0023185052
203	0x3c1f59b4	0.009725977
204	0xbb5fee4b	-0.0034169133
205	0x3aa7cdd4	0.001280243
206	0xbb6f3f6b	-0.0036506306
207	0xbbc43a52	-0.0059883976
208	0xbb74b074	-0.003733662
209	0xbbab957c	-0.005236326
210	0xbb0532d2	-0.002032448
211	0xbb4a2722	-0.003084608
212	0xbb8238bf	-0.00397405
213	0x3c5d3ef3	0.013503778
214	0xbc0dc9cc	-0.008654069
215	0xbb3d89ea	-0.0028921315
216	0x3b7a9f13	0.0038241788
217	0x3af4100c	0.0018620505
218	0xb7ce8de1	-2.4623181e-05
219	0xbb4caef0	-0.00312322
220	0xbb6b7b19	-0.0035931526
221	0xbc1ce74f	-0.009576633
222	0xbbc89613	-0.006121406
223	0xbbe7ee42	-0.007077963
224	0xbb8fde46	-0.0043905107
225	0xbbb90efd	-0.0056475387
226	0xbbe88bbe	-0.0070967367
227	0xbbf99af9	-0.007617351
228	0xbb862ec2	-0.0040949294
229	0xbc4a2a41	-0.012339176
230	0xbb40d7ea	-0.002942557
231	0x3b3e9cbe	0.0029085125
232	0xbb1fe102	-0.002439559
233	0x3b919e44	0.0044439156
234	0x391f4bf7	0.00015191721
235	0xbb238f09	-0.0024957082
236	0x3b959e88	0.0045660175
237	0xbb227854	-0.002479096
238	0xba8485e8	-0.0010110708
239	0x3b27b2c1	0.0025588723
240	0xba928ffc	-0.0011181827
241	0x3a89b530	0.0010506269
242	0xb920aefa	-0.00015323973
243	0x3af8cc5f	0.0018981806
244	0xbbeff5d9	-0.0073230085
245	0xbb78a0a8	-0.0037937555
246	0xbc2d3a23	-0.010572943
247	0xbbb60d92	-0.005555817
248	0x39b94e27	0.00035344178
249	0x3aa28de6	0.0012401908
250	0x39a84e22	0.0003210167
251	0x3a256032	0.00063085847
252	0x3c3d077a	0.011537427
253	0xbaabcbf7	-0.0013107051
254	0x3ba9989b	0.0051756627
255	0xbb3dd6d3	-0.0028967157

layer1.1.running_mean f4 [256]
0	0x3eb9298d	0.36164513
1	0x3e50828c	0.203623
2	0xbeb15a03	-0.34638986
3	0x3e9a68ce	0.30158085
4	0xbe8da088	-0.27661538
5	0x3e65910d	0.22418614
6	0xbe05e29c	-0.13074726
7	0x3ddbbe17	0.10729616
8	0x3ddd37e9	0.1080168
9	0xbd9abd8c	-0.075556844
10	0xbe07c0b0	-0.13257098
11	0xbdb56b61	-0.088583715
12	0x3c27fe53	0.010253507
13	0x3e3c956e	0.18416378
14	0xbe5f9b64	-0.2183662
15	0x3ed2c9ad	0.4116949
16	0x3ec5af77	0.38610432
17	0x3e726c1e	0.23674056
18	0x3e9a0812	0.30084282
19	0xbc948e29	-0.018134193
20	0xbdb13cff	-0.08654212
21	0x3ea07a31	0.31343225
22	0xbea56813	-0.32305965
23	0x3d941516	0.07230584
24	0x3e6ebfa9	0.233153
25	0xbc68e435	-0.014214565
26	0x3e55ea66	0.20890197
27	0x3e29a8b0	0.16568255
28	0xbd86e22d	-0.06586108
29	0x3df0f14c	0.11764774
30	0xbe6ab14c	-0.22919196
31	0xbe1461ac	-0.14490384
32	0xbe016324	-0.12635475
33	0x3def4d57	0.11684673
34	0xbeeec89a	-0.46637422
35	0x3ef5470a	0.4790576
36	0xbde0413f	-0.10949945
37	0x3def4be9	0.116844006
38	0x3cada087	0.02119471
39	0xbd1d23f6	-0.038364373
40	0xbdc3a0f6	-0.09552185
41	0xbe7a7506	-0.24458703
42	0x3e0b9438	0.1363076
43	0x3dab6411	0.083686955
44	0x3dd1d897	0.10246389
45	0xbe89ef4e	-0.26940387
46	0xbb8c8b26	-0.0042890487
47	0xbdd2e359	-0.102972694
48	0x3dcf629e	0.101262316
49	0x3eb3e3e7	0.35134813
50	0xbd841797	-0.06449812
51	0x3e240a57	0.1601957
52	0x3c91acd4	0.017782606
53	0x3dd61e48	0.104549944
54	0xbe86cb35	-0.2632691
55	0x3e37184c	0.17880362
56	0x3e55ef1d	0.20891996
57	0xbddb61c0	-0.10712004
58	0x3e4d1dc5	0.20030887
59	0x3cdebb58	0.027188942
60	0xbee80b88	-0.45321298
61	0x3efb7b38	0.49117446
62	0xbf2fa71d	-0.6861437
63	0x3cd072e7	0.025445415
64	0x3db1ae70	0.086758494
65	0xbeefc7d8	-0.46832156
66	0xbe859eaa	-0.26097614
67	0xbe79c78e	-0.2439253
68	0xbe43e3fc	-0.19129938
69	0xbb9c47af	-0.0047692875
70	0xbddf3204	-0.108982116
71	0x3d0cb909	0.03435615
72	0x3ddd023c	0.10791442
73	0x3de69d0a	0.112604216
74	0xbe5ab720	-0.21358919
75	0xbd55c678	-0.052191228
76	0xbbf4053d	-0.0074469135
77	0x3d8521a9	0.06500561
78	0xbea026da	-0.3127964
79	0xbe8259ec	-0.2545923
80	0x3ead45de	0.33842367
81	0x3dd27af5	0.102773584
82	0x3db04365	0.086066045
83	0x3ed18c9f	0.40927598
84	0x3c875195	0.016518394
85	0xbed58096	-0.41699666
86	0xbcac08b0	-0.021000236
87	0x3d8cdc62	0.06877972
88	0xbd2042e2	-0.039126284
89	0x3e9364ca	0.28787833
90	0x3e9a2bd9	0.30111578
91	0xbe1f9fbf	-0.15588282
92	0xbdae0836	-0.0849766
93	0x3e897395	0.26845995
94	0x3e8a30e0	0.26990414
95	0xbe0db92a	-0.13840166
96	0x3dd1449c	0.10218164
97	0x3e81adad	0.25327817
98	0x3c793358	0.015209995
99	0x3e9dc01d	0.30810633
100	0x3edb358f	0.428143
101	0x3ea3a4c9	0.3196166
102	0x3dbd7344	0.09250501
103	0xbe0298cd	-0.12753601
104	0xbcf37be2	-0.029722158
105	0xbe880588	-0.2656672
106	0x3cead4fa	0.028666008
107	0x3c32c564	0.010911319
108	0x3e140a41	0.14457037
109	0x3ea57cb9	0.32321718
110	0xbdba82d1	-0.091069825
111	0x3dfe74c9	0.12424619
112	0xbe2cc298	-0.16871107
113	0xbd88ab30	-0.066732764
114	0xbe7cc641	-0.24685003
115	0x3dfc3191	0.123141415
116	0xbd697ce8	-0.057003886
117	0x3b63b49c	0.0034745103
118	0x3e93c065	0.28857723
119	0x3e8403fd	0.25784293
120	0x3d484c9e	0.048901193
121	0x3d86f388	0.06589419
122	0xbee306cc	-0.44341123
123	0x3ecdbb9b	0.40182194
124	0x3e05cc71	0.1306627
125	0x3d1a1186	0.037614368
126	0x3e30f9c9	0.17282785
127	0xbf040fa8	-0.5158639
128	0x3d8f9bcf	0.0701214
129	0xbd71c285	-0.0590234
130	0x3e7c3391	0.24629046
131	0xbdf61c1f	-0.120170824
132	0xbe1eb975	-0.15500434
133	0xbd00690e	-0.031350188
134	0xbdbdc75b	-0.0926654
135	0xbe0af321	-0.13569309
136	0xbecd31a8	-0.40076947
137	0x3dcea0a9	0.10089237
138	0xbd82dc7a	-0.06389709
139	0xbe01f567	-0.1269127
140	0x3eb65caf	0.35617587
141	0xbe40fd27	-0.1884657
142	0xbecbd894	-0.39813673
143	0xbd9f4a73	-0.07777872
144	0x3f049895	0.5179532
145	0xbe22b4e5	-0.15889318
146	0x3de2ed1e	0.11080383
147	0xbd427fa4	-0.04748501
148	0x3c463916	0.012098571
149	0x3f060e40	0.52365494
150	0x3c10596c	0.008810382
151	0x3e2a0077	0.1660174
152	0xbe515ca4	-0.20445496
153	0xbef6526f	-0.48109767
154	0x3bc350e0	0.005960569
155	0x3e5231a5	0.2052675
156	0x3e11f402	0.14253238
157	0xbd90cb99	-0.07070083
158	0xbe162492	-0.14662388
159	0x3e875e48	0.26439118
160	0x3c8500c5	0.016235719
161	0xbe32612b	-0.17419879
162	0xbdadfe29	-0.08495743
163	0x3d88f94d	0.06688175
164	0xbdaede89	-0.08538539
165	0x3e296c14	0.16545135
166	0x3e5172a4	0.20453888
167	0xbd1cfba1	-0.03832591
168	0x3d577098	0.052597612
169	0xbaf89ab0	-0.0018966999
170	0xbe8459db	-0.25849804
171	0xbeb04731	-0.34429315
172	0xbf09f3a9	-0.5388742
173	0x3e7384b3	0.2378109
174	0xbeaab5cc	-0.33341825
175	0xbe7cfd65	-0.24706037
176	0xbee8b0fb	-0.45447525
177	0x3e97652d	0.29569378
178	0x3e294740	0.16531086
179	0x3d91bcd6	0.07116096
180	0x3e0535a2	0.1300874
181	0x3d08d858	0.033409446
182	0x3d3070cb	0.043076318
183	0x3ebaf9b5	0.36518636
184	0xbdba6d4b	-0.09102877
185	0xbea01105	-0.31262985
186	0x3e8d55a3	0.27604398
187	0xbdbaf686	-0.09129052
188	0xba92fa8d	-0.0011213586
189	0xbd8543c0	-0.06507063
190	0xbe8366a1	-0.25664237
191	0xbb894ba4	-0.0041899253
192	0x3c5936f2	0.013257729
193	0x3e49f64e	0.19722864
194	0xbc22b194	-0.009930033
195	0xbd53d5a2	-0.051717408
196	0x3d6637dd	0.05620562
197	0xbe974e56	-0.29551953
198	0xbe1572d0	-0.14594579
199	0x3d298ab7	0.041392054
200	0xbe09aaa0	-0.13443995
201	0xbcc94967	-0.024571134
202	0x3d7f513b	0.062333327
203	0x3dc612f4	0.09671584
204	0xbebdc19a	-0.3706177
205	0xbe9c13b0	-0.3048377
206	0x3e3be376	0.18348488
207	0xbf06a39d	-0.52593404
208	0xbd6945f3	-0.056951474
209	0x3ead0337	0.33791515
210	0xbdb8b4d3	-0.090188645
211	0x3de82441	0.1133504
212	0xbd8f8143	-0.070070766
213	0x3e9b11e4	0.30287087
214	0xbe697ce2	-0.22801545
215	0x3e53bc33	0.20677261
216	0x3ebde51e	0.37088865
217	0x3dfe644f	0.12421476
218	0xbe1f5937	-0.15561377
219	0xbd67ac57	-0.05656084
220	0xbd46459a	-0.04840622
221	0x3e91e231	0.28492883
222	0xbd7aae54	-0.06120141
223	0x3e954c73	0.2915989
224	0x3d1b67bd	0.03794073
225	0x3cb03496	0.02150945
226	0x3d39fccb	0.045407098
227	0x3db0b54b	0.08628329
228	0x3e80f612	0.25187737
229	0x3e03935f	0.12849186
230	0x3e5122f0	0.20423484
231	0xbee7a957	-0.45246384
232	0x3e0f1be6	0.13975486
233	0xbd573f2f	-0.05255049
234	0xbccc7d06	-0.02496196
235	0x3e3397ff	0.1753845
236	0xbe149105	-0.14508446
237	0x3e813e09	0.25242642
238	0x3e7f653f	0.24940966
239	0x3dac1137	0.08401721
240	0xbe436036	-0.1907967
241	0x3e3b3c6d	0.1828477
242	0x3e84635a	0.2585705
243	0x3ed13e56	0.4086787
244	0x3e900f5b	0.28136715
245	0x3e06310e	0.1310465
246	0xbe22887e	-0.1587238
247	0xbf0cee09	-0.5505071
248	0xbe7a9da8	-0.24474204
249	0xbeadf9a1	-0.33979514
250	0xbea4ab91	-0.32162145
251	0x3d1f86fd	0.038947094
252	0xbe925d09	-0.28586605
253	0x3ea7e719	0.327935
254	0xbeb56dbc	-0.35435283
255	0x3d8ed2cd	0.06973801

layer1.1.running_var f4 [256]
0	0x3d305368	0.043048292
1	0x3d80aa88	0.06282526
2	0x3c8b2b83	0.016988521
3	0x3c9c55ee	0.019083943
4	0x3d3d2a49	0.046182904
5	0x3d2c6d65	0.042096514
6	0x3cb0eacd	0.021596337
7	0x3d00cf23	0.03144754
8	0x3d0a11e4	0.033708468
9	0x3d06e5f5	0.032934148
10	0x3d8a3ac3	0.06749489
11	0x3ce90168	0.028443053
12	0x3cc7b70d	0.024379278
13	0x3ca0965d	0.019602949
14	0x3cb92153	0.022598898
15	0x3cfbde17	0.03074555
16	0x3d07d331	0.033160392
17	0x3d0c34ea	0.03423015
18	0x3cb80ce3	0.022467082
19	0x3cc320ad	0.023819292
20	0x3d1ad8d8	0.037804455
21	0x3d46d65f	0.048544284
22	0x3d8a5f78	0.067564905
23	0x3c841651	0.016123923
24	0x3c96bcc8	0.018400565
25	0x3d4ef22b	0.050523918
26	0x3d41294b	0.04715852
27	0x3caefc87	0.021360649
28	0x3ceec486	0.029146444
29	0x3d08c85b	0.0333942
30	0x3d0d2b31	0.03446502
31	0x3d70d078	0.05879256
32	0x3d10e12e	0.035370998
33	0x3d199d11	0.037503306
34	0x3d340040	0.04394555
35	0x3d8cc36f	0.068732135
36	0x3d20821c	0.039186582
37	0x3c7d55a5	0.015462314
38	0x3cc0de6d	0.02354356
39	0x3c3fb3b1	0.011700557
40	0x3cbc0442	0.022951249
41	0x3d38df13	0.045134615
42	0x3d130fb1	0.035903636
43	0x3c9b1941	0.01893294
44	0x3cd06a8e	0.025441434
45	0x3d2a0326	0.04150691
46	0x3c7988ef	0.015230401
47	0x3d1d270d	0.03836732
48	0x3cd490d9	0.025947975
49	0x3d099f3d	0.033599127
50	0x3c0b5482	0.008504035
51	0x3cf5193c	0.02991926
52	0x3cb0ef0d	0.021598363
53	0x3d5a7d47	0.05334213
54	0x3d2cc143	0.042176496
55	0x3cbe134a	0.023202557
56	0x3d696ac1	0.056986574
57	0x3d1095a1	0.035298947
58	0x3d10456d	0.03522246
59	0x3cd633d3	0.026147759
60	0x3d6ce233	0.057832908
61	0x3d27c9cb	0.04096393
62	0x3d2d3d61	0.042294864
63	0x3d627ae8	0.055292994
64	0x3cc11878	0.023571238
65	0x3c4fe3eb	0.012688617
66	0x3c9b771d	0.018977696
67	0x3d03d3dc	0.032184467
68	0x3d1580db	0.03649984
69	0x3cc217a2	0.02369291
70	0x3c94503b	0.018104663
71	0x3cf8c486	0.030367147
72	0x3d066d52	0.0328191
73	0x3cccea15	0.025013963
74	0x3d89a560	0.06720996
75	0x3cff1a1f	0.031140385
76	0x3d58984b	0.052879613
77	0x3d5cc4f6	0.053898774
78	0x3ca88f7e	0.020576235
79	0x3d242bf6	0.040080987
80	0x3cbdb900	0.023159504
81	0x3d01cca1	0.03168929
82	0x3c5c0853	0.013429719
83	0x3c57f679	0.013181322
84	0x3ca1bad5	0.019742409
85	0x3cd30174	0.025757529
86	0x3cadd52a	0.021219809
87	0x3ce5b0e5	0.028038451
88	0x3cd6b640	0.02620995
89	0x3c9aecb1	0.018911691
90	0x3d411413	0.047138285
91	0x3c851f5e	0.016250309
92	0x3cdbf368	0.026849464
93	0x3c9b2379	0.018937813
94	0x3d139075	0.036026437
95	0x3d037655	0.032095272
96	0x3d3f232a	0.046664394
97	0x3d7d958b	0.061910193
98	0x3d253cb5	0.040341098
99	0x3cc86c6c	0.024465762
100	0x3ca0a468	0.019609645
101	0x3c8be352	0.017076168
102	0x3ce462b9	0.027879106
103	0x3d5fcd90	0.0546394
104	0x3c564b95	0.013079544
105	0x3d0ffd0f	0.035153445
106	0x3d593c02	0.053035744
107	0x3d3155c7	0.043294694
108	0x3ca003f2	0.019533131
109	0x3d258c73	0.040417146
110	0x3c9727b8	0.018451557
111	0x3caa0430	0.02075395
112	0x3c57b667	0.013166047
113	0x3d0580ac	0.032593414
114	0x3d11591c	0.035485372
115	0x3d29ac8f	0.04142433
116	0x3ceedeff	0.029159067
117	0x3c916c38	0.017751798
118	0x3caae027	0.020858837
119	0x3ca57d45	0.020201335
120	0x3d3b0f0d	0.04566865
121	0x3d06df29	0.032927666
122	0x3d3b0762	0.045661338
123	0x3d02d2ac	0.031939194
124	0x3d39bb5f	0.045344707
125	0x3d1866c7	0.03720739
126	0x3d1cf700	0.038321495
127	0x3cdb06aa	0.026736576
128	0x3d44cde2	0.048047908
129	0x3da56f4a	0.08077867
130	0x3cce2bc6	0.025167357
131	0x3c98f26a	0.01867028
132	0x3cb4004c	0.021972798
133	0x3ce98a63	0.02850837
134	0x3d03bc47	0.032161977
135	0x3cc833e9	0.024438815
136	0x3cba6ed0	0.022757918
137	0x3d95d195	0.07315365
138	0x3d1d6d6f	0.038434442
139	0x3d7a8e3f	0.061170813
140	0x3cd1528a	0.025552053
141	0x3cbde3af	0.023179857
142	0x3d0ab7ce	0.033866696
143	0x3c8978b9	0.016781198
144	0x3d7f6e87	0.062361266
145	0x3ce780c0	0.028259635
146	0x3d6a0fa6	0.05714383
147	0x3c78c079	0.015182608
148	0x3d0807d7	0.0332106
149	0x3d2e3940	0.042535067
150	0x3cb97b35	0.022641758
151	0x3d38c6a1	0.045111302
152	0x3caeee88	0.021353975
153	0x3d04c89e	0.032417886
154	0x3d29726a	0.04136888
155	0x3c86c010	0.016449004
156	0x3d606af8	0.054789513
157	0x3cb15b27	0.02164991
158	0x3cc9c337	0.024629219
159	0x3cc4be7d	0.024016613
160	0x3cfeeff8	0.031120285
161	0x3d3d127e	0.046160214
162	0x3d0d2162	0.034455664
163	0x3ca7a6a0	0.020465195
164	0x3d666e2c	0.05625741
165	0x3d7b4755	0.061347324
166	0x3c92e5f1	0.01793191
167	0x3d16c033	0.03680439
168	0x3d1d6cde	0.038433902
169	0x3d1c0b2b	0.038096588
170	0x3c8d7a92	0.01727036
171	0x3cd19df2	0.02558801
172	0x3d9e9969	0.077441044
173	0x3cd71c8c	0.02625873
174	0x3c98c591	0.018648895
175	0x3d31a01a	0.043365575
176	0x3c4e1955	0.012579282
177	0x3cc92ed9	0.024558472
178	0x3cc19221	0.02362925
179	0x3cf2bcf3	0.029631114
180	0x3d8811cd	0.0664402
181	0x3d06cc54	0.032909706
182	0x3cb4fc92	0.022093091
183	0x3cd83b8c	0.026395582
184	0x3c410e1a	0.011783147
185	0x3cfec9ce	0.031102087
186	0x3cfcea38	0.030873403
187	0x3c6f81e9	0.014618375
188	0x3d10979a	0.03530083
189	0x3c89da70	0.016827792
190	0x3c5e21d7	0.013557873
191	0x3d3fce4b	0.046827596
192	0x3d460d4b	0.04835252
193	0x3cbe603a	0.023239244
194	0x3d3c1121	0.045914773
195	0x3c89b95f	0.016812025
196	0x3d45024e	0.0480979
197	0x3d8cb52e	0.06870495
198	0x3d0be89e	0.034157388
199	0x3cf2590f	0.029583482
200	0x3d00d5d4	0.031453922
201	0x3ca37e1b	0.019957593
202	0x3cd21f11	0.02564958
203	0x3ce07549	0.027399676
204	0x3da06282	0.07831289
205	0x3d78fa70	0.06078571
206	0x3cc39a7f	0.02387738
207	0x3cf1a555	0.029497782
208	0x3cf4191d	0.029797131
209	0x3d1e9743	0.038718473
210	0x3cbb9d6f	0.022902219
211	0x3d14c74e	0.036322884
212	0x3cc976a5	0.024592707
213	0x3c695bab	0.014243047
214	0x3bfb5fa2	0.0076713124
215	0x3d89edfe	0.067348465
216	0x3d20d2d1	0.03926355
217	0x3d14d52a	0.0363361
218	0x3d1d2b22	0.038371213
219	0x3d188ead	0.03724544
220	0x3d2773ed	0.04088204
221	0x3cd7d2e4	0.026345678
222	0x3c7b755d	0.015347806
223	0x3d61eb78	0.0551562
224	0x3cf50bb4	0.029912807
225	0x3d249f61	0.040191058
226	0x3d468ffe	0.048477165
227	0x3cbfa3b2	0.023393486
228	0x3c10e2da	0.008843148
229	0x3d68942a	0.056781925
230	0x3d3d9231	0.046281997
231	0x3cd1ec84	0.025625475
232	0x3cd0bb55	0.025479952
233	0x3c724016	0.014785787
234	0x3d228dc9	0.039685998
235	0x3c9a7526	0.018854689
236	0x3c578795	0.013154884
237	0x3d3275a1	0.04356921
238	0x3bc72236	0.0060770763
239	0x3d36f05f	0.04466283
240	0x3ca4564c	0.02006068
241	0x3c95780f	0.018245725
242	0x3d263684	0.040579334
243	0x3c9b9b2e	0.018994894
244	0x3d15c25c	0.03656231
245	0x3c878103	0.01654101
246	0x3cf26738	0.029590234
247	0x3d23ee73	0.040022325
248	0x3d25ebb4	0.040507987
249	0x3d28bb28	0.04119411
250	0x3d3c17fc	0.04592131
251	0x3ce3aa58	0.027791187
252	0x3cd1dd26	0.025618147
253	0x3d39ec75	0.04539152
254	0x3d228dcc	0.03968601
255	0x3d34fdb7	0.044187274

layer2.0.weight f4 [128, 256]
0	0x3b05e128	0.0020428393
1	0x3c6f8e7c	0.014621373
2	0xbd4187ae	-0.047248535
3	0xbb9714dc	-0.004610641
4	0x3d0b99e0	0.034082294
5	0xbcd8f0f7	-0.026482088
6	0x3b340637	0.0027469525
7	0xbd40186d	-0.046898294
8	0xbd2e3788	-0.042533427
9	0xbc3fef51	-0.011714772
10	0x3c65799a	0.014006043
11	0xbd6aa9ab	-0.057290714
12	0x3b959b7f	0.0045656557
13	0xbc15fdb5	-0.009154727
14	0xbccc0bd7	-0.02490799
15	0xbb33a13d	-0.0027409338
16	0x3bee9d72	0.0072819525
17	0xbd50ab86	-0.050944827
18	0x3d93a4d4	0.07209173
19	0x3c5c54c3	0.013447943
20	0xbc91a416	-0.017778438
21	0x3d073aa5	0.033014912
22	0xbd05e4f7	-0.03268906
23	0x3cee3ffb	0.029083243
24	0xbd8043ec	-0.06262955
25	0xbc57301c	-0.013134029
26	0xbd2b71bf	-0.041856524
27	0x3c95ddee	0.0182943
28	0x3c427778	0.011869304
29	0x3cdad80d	0.02671435
30	0xbd30b4d0	-0.043141186
31	0x3d34528b	0.04402403
32	0x3d5fe82a	0.05466477
33	0xbd81d8aa	-0.063401535
34	0x3d35921c	0.044328794
35	0x3d0bf271	0.034166757
36	0xbd77531a	-0.060381986
37	0x3d57d1e6	0.05269041
38	0xbb744d5b	-0.0037277553
39	0x3b992d22	0.0046745697
40	0x3d7b7948	0.06139496
41	0xbc3f2761	-0.0116671035
42	0xbd26bf1b	-0.040709596
43	0x3cabaf88	0.020957723
44	0xbd1b86c3	-0.037970316
45	0xbda32577	-0.0796613
46	0x3d10238a	0.035190143
47	0xbcde80b5	-0.027160982
48	0x3c4a0f9f	0.012332826
49	0x3a4b9737	0.0007766368
50	0x3cc0b59d	0.0235241
51	0xbd93f52a	-0.07224496
52	0x3c9b7097	0.018974585
53	0xbd812e5a	-0.06307669
54	0x3d148006	0.036254905
55	0x3c8b790d	0.017025495
56	0x3d322f58	0.04350218
57	0xbd8111e3	-0.0630224
58	0x3d006cc7	0.03135374
59	0x3c241d32	0.010016726
60	0x3c3db1fb	0.011578078
61	0x3d265b4c	0.04061441
62	0x3d78719a	0.060655214
63	0xbd50dd6f	-0.050992426
64	0x3d5a51c8	0.05330065
65	0xbd7f93d4	-0.06239684
66	0xbd794df1	-0.060865346
67	0x3d8c439c	0.06848833
68	0x3c78a844	0.015176836
69	0xbd66cb6a	-0.056346335
70	0xbd7a4fab	-0.061111134
71	0xbc22217d	-0.00989568
72	0xbb44b52a	-0.0030015209
73	0xbd0bbe7c	-0.034117207
74	0xbd0332d9	-0.032030914
75	0x3c013d2d	0.007888121
76	0x3d09bdcb	0.033628266
77	0x3c3e601f	0.011619597
78	0xbba245a9	-0.004952152
79	0xbd1d768f	-0.038443144
80	0x3ac56133	0.0015058875
81	0x3c4049da	0.011736358
82	0x3d827edb	0.06371852
83	0x3bce486e	0.0062952554
84	0xbd809366	-0.06278114
85	0xbd3d55db	-0.046224456
86	0x3afc5bc8	0.0019253427
87	0x3d4af9c8	0.049554616
88	0xbc848976	-0.016178828
89	0xbcdc479e	-0.026889618
90	0x3d0bbfc9	0.034118447
91	0xbd110a60	-0.035410285
92	0x3c8aeca4	0.016958542
93	0xbccb97a6	-0.024852585
94	0x3c7e2b3d	0.0155132385
95	0x3cfb209c	0.030655198
96	0xbd11b755	-0.03557523
97	0x3d3b5d7e	0.045743458
98	0xbd17ce33	-0.03706188
99	0xbb36b61d	-0.0027879544
100	0x3d5e1ac8	0.05422476
101	0xbcc780dc	-0.024353437
102	0x3c47d776	0.012197366
103	0xbc6fd30a	-0.014637718
104	0x3bad1ced	0.0052829892
105	0xbd3883cc	-0.045047566
106	0x3cbe601d	0.02323919
107	0x3c43e8fa	0.011957401
108	0x3d795f15	0.060881693
109	0x3d21e53e	0.039525263
110	0xbd2cbcd6	-0.042172275
111	0x3cef60d1	0.02922097
112	0xbc35552a	-0.011067668
113	0x3d8cd1dc	0.06875965
114	0xbcfd2a26	-0.030903887
115	0xbccfa60e	-0.025347736
116	0xbc602e4a	-0.013682911
117	0xbce2549e	-0.02762824
118	0xbd4e0f6a	-0.05030767
119	0xbd562a1c	-0.052286252
120	0xbd281c85	-0.041042823
121	0xbcc74657	-0.024325533
122	0x3c491cd3	0.012274939
123	0xbd2f2ffa	-0.042770363
124	0xbc09690a	-0.00838686
125	0x3cc10c0c	0.023565315
126	0x3ca47f1b	0.02008014
127	0x3d3825e8	0.044958025
128	0xbd8461e3	-0.06463983
129	0x3b4c7939	0.0031200184
130	0x3c4ccec1	0.012500466
131	0x3b261614	0.002534275
132	0xbd4d688a	-0.050148524
133	0x3cd642e0	0.026154935
134	0xbd11bc40	-0.03557992
135	0xbd5ab63c	-0.05339645
136	0x3d64bd84	0.0558448
137	0xbcc2fabb	-0.023801198
138	0xbcdbfbc3	-0.026853448
139	0x3d13a3d8	0.036044925
140	0x3d057f55	0.032592136
141	0xbd1d6882	-0.038429745
142	0x3d07eed8	0.033186764
143	0x3c9be45e	0.019029792
144	0xba959a39	-0.001141376
145	0xbb62c6cb	-0.0034603353
146	0xbc44c29c	-0.012009289
147	0x3cd44329	0.02591093
148	0x3d0bfc7a	0.034176327
149	0x3d566c44	0.052349344
150	0xbce9c455	-0.028536001
151	0x3c730446	0.014832562
152	0xbd66ea7c	-0.056375965
153	0xbc6c8461	-0.0144358585
154	0xbcb21a10	-0.021740943
155	0x3c269b00	0.010168791
156	0xbcf7f773	-0.03026936
157	0xbc9a80f6	-0.018860321
158	0xbd42b177	-0.047532525
159	0xbd383db4	-0.04498072
160	0x3c7b2178	0.015327804
161	0x3d2b3548	0.04179886
162	0xbd30e6dd	-0.04318892
163	0x3cccc24b	0.02499499
164	0xbd2dcc0c	-0.042430922
165	0xbb77a6e8	-0.0037788693
166	0xbd59ef72	-0.05320687
167	0xbd68c937	-0.05683252
168	0x3d48007a	0.04882858
169	0xbbd585c4	-0.0065161902
170	0xbbd21d1f	-0.006412163
171	0x3d41cfad	0.047317196
172	0xbd6b446c	-0.0574383
173	0x3d341531	0.043965522
174	0x3d22b10d	0.03971963
175	0x3d6487b1	0.055793468
176	0xbcf1246a	-0.029436309
177	0xbd50c3d7	-0.050968017
178	0xbccfecdf	-0.025381504
179	0x3beb8ac8	0.007188175
180	0x3d2e85bd	0.04260801
181	0xbd65cae6	-0.056101702
182	0xbd6f938b	-0.058490317
183	0xba8d9c80	-0.0010804087
184	0x3cdf1da3	0.027235812
185	0xbca485d5	-0.020083347
186	0x3d1c1ea0	0.038115144
187	0x3d6c386c	0.057670996
188	0xbc6667ae	-0.014062805
189	0xbd0f32c3	-0.03496052
190	0xbca64901	-0.020298483
191	0xbd2e23d0	-0.042514622
192	0xbd388c1f	-0.045055505
193	0x3d14e373	0.036349725
194	0xbd6d86ec	-0.05799
195	0x3d3e7364	0.046496764
196	0xbd6f469e	-0.058416955
197	0xbc82d408	-0.015970245
198	0x3d373407	0.04472735
199	0xbc93bb84	-0.01803375
200	0x3d8a86cd	0.067639925
201	0xbd50fc9d	-0.05102216
202	0x3d667277	0.056261506
203	0xbd1dd663	-0.038534533
204	0xbc8c3eeb	-0.017119845
205	0xbc3f1c08	-0.011664398
206	0xbd19a317	-0.03750905
207	0x3d289e87	0.04116681
208	0x3d8ac5fb	0.06776043
209	0xbcf423db	-0.029802253
210	0xbd2b6e71	-0.041853372
211	0x3d0ea753	0.03482754
212	0x3ca170cb	0.019707104
213	0x3b0b9bab	0.0021302502
214	0xbd2e6708	-0.042578727
215	0x3d08da1e	0.033411138
216	0x3caf7e6b	0.021422585
217	0xbc0f7837	-0.008756689
218	0x3cbd981c	0.02314382
219	0xbd0f291f	-0.034951326
220	0x3d10f4e1	0.035389785
221	0xbb82712d	-0.0039807768
222	0xbd62634e	-0.055270486
223	0xbcb46136	-0.02201901
224	0x3cd14738	0.025546655
225	0xbcd969b4	-0.026539661
226	0x3d28d382	0.041217335
227	0x3cbc4c6e	0.022985663
228	0x3adbb084	0.001676098
229	0x3d48f294	0.049059466
230	0x3d51c3e4	0.051212206
231	0x3d190751	0.037360493
232	0xbcc70c7c	-0.024297945
233	0x3d18b6c6	0.03728368
234	0xbc79daac	-0.015249889
235	0xbd883f54	-0.06652704
236	0xb87396c7	-5.8076137e-05
237	0xbd82b483	-0.06382086
238	0x3d11b2e8	0.03557101
239	0xbd984533	-0.07435074
240	0x3ac42aa8	0.0014966326
241	0xba979d42	-0.0011567252
242	0xbd637734	-0.055533603
243	0xbd7b8655	-0.061407406
244	0xbc17b2a5	-0.009258901
245	0x3d64b191	0.055833403
246	0x3ce9b8e1	0.02853054
247	0x3d866706	0.06562619
248	0x3cd336de	0.025782999
249	0x3c04f0cb	0.00811405
250	0x3d38e2bb	0.045138102
251	0xbc43e411	-0.011956231
252	0xbd0c5d37	-0.034268584
253	0x3d831fc5	0.06402544
254	0xbbc1cc9b	-0.0059142835
255	0x3c6cddef	0.01445721
